{"format": "graph-model", "generatedBy": "2.9.0", "convertedBy": "TensorFlow.js Converter v3.17.0", "signature": {"inputs": {"input_images": {"name": "input_images:0", "dtype": "DT_FLOAT", "tensorShape": {"dim": [{"size": "1"}, {"size": "320"}, {"size": "320"}, {"size": "3"}]}}}, "outputs": {"feature_fusion/concat_3": {"name": "feature_fusion/concat_3:0", "dtype": "DT_FLOAT", "tensorShape": {"dim": [{"size": "1"}, {"size": "80"}, {"size": "80"}, {"size": "5"}]}}, "feature_fusion/Conv_7/Sigmoid": {"name": "feature_fusion/Conv_7/Sigmoid:0", "dtype": "DT_FLOAT", "tensorShape": {"dim": [{"size": "1"}, {"size": "80"}, {"size": "80"}, {"size": "1"}]}}}}, "modelTopology": {"node": [{"name": "Conv2D_60/filter", "op": "Const", "attr": {"value": {"tensor": {"dtype": "DT_FLOAT", "tensorShape": {"dim": [{"size": "1"}, {"size": "1"}, {"size": "32"}, {"size": "1"}]}}}, "dtype": {"type": "DT_FLOAT"}}}, {"name": "tfl.conv_2d60/y", "op": "Const", "attr": {"value": {"tensor": {"dtype": "DT_FLOAT", "tensorShape": {"dim": [{"size": "1"}]}}}, "dtype": {"type": "DT_FLOAT"}}}, {"name": "Conv2D_61/filter", "op": "Const", "attr": {"value": {"tensor": {"dtype": "DT_FLOAT", "tensorShape": {"dim": [{"size": "1"}, {"size": "1"}, {"size": "32"}, {"size": "4"}]}}}, "dtype": {"type": "DT_FLOAT"}}}, {"name": "tfl.conv_2d61/y", "op": "Const", "attr": {"value": {"tensor": {"dtype": "DT_FLOAT", "tensorShape": {"dim": [{"size": "4"}]}}}, "dtype": {"type": "DT_FLOAT"}}}, {"name": "feature_fusion/mul_6/y", "op": "Const", "attr": {"dtype": {"type": "DT_FLOAT"}, "value": {"tensor": {"dtype": "DT_FLOAT", "tensorShape": {}}}}}, {"name": "tfl.conv_2d52/y", "op": "Const", "attr": {"value": {"tensor": {"dtype": "DT_FLOAT", "tensorShape": {"dim": [{"size": "2048"}]}}}, "dtype": {"type": "DT_FLOAT"}}}, {"name": "tfl.conv_2d49/y", "op": "Const", "attr": {"dtype": {"type": "DT_FLOAT"}, "value": {"tensor": {"dtype": "DT_FLOAT", "tensorShape": {"dim": [{"size": "2048"}]}}}}}, {"name": "ArithmeticOptimizer/AddOpsRewrite_Leaf_0_Add_42", "op": "Const", "attr": {"dtype": {"type": "DT_FLOAT"}, "value": {"tensor": {"dtype": "DT_FLOAT", "tensorShape": {"dim": [{"size": "2048"}]}}}}}, {"name": "Conv2D_46/filter", "op": "Const", "attr": {"dtype": {"type": "DT_FLOAT"}, "value": {"tensor": {"dtype": "DT_FLOAT", "tensorShape": {"dim": [{"size": "1"}, {"size": "1"}, {"size": "1024"}, {"size": "2048"}]}}}}}, {"name": "tfl.conv_2d39/y", "op": "Const", "attr": {"value": {"tensor": {"dtype": "DT_FLOAT", "tensorShape": {"dim": [{"size": "1024"}]}}}, "dtype": {"type": "DT_FLOAT"}}}, {"name": "tfl.conv_2d36/y", "op": "Const", "attr": {"value": {"tensor": {"dtype": "DT_FLOAT", "tensorShape": {"dim": [{"size": "1024"}]}}}, "dtype": {"type": "DT_FLOAT"}}}, {"name": "tfl.conv_2d33/y", "op": "Const", "attr": {"dtype": {"type": "DT_FLOAT"}, "value": {"tensor": {"dtype": "DT_FLOAT", "tensorShape": {"dim": [{"size": "1024"}]}}}}}, {"name": "tfl.conv_2d30/y", "op": "Const", "attr": {"dtype": {"type": "DT_FLOAT"}, "value": {"tensor": {"dtype": "DT_FLOAT", "tensorShape": {"dim": [{"size": "1024"}]}}}}}, {"name": "ArithmeticOptimizer/AddOpsRewrite_Leaf_0_Add_24", "op": "Const", "attr": {"value": {"tensor": {"dtype": "DT_FLOAT", "tensorShape": {"dim": [{"size": "1024"}]}}}, "dtype": {"type": "DT_FLOAT"}}}, {"name": "Conv2D_27/filter", "op": "Const", "attr": {"value": {"tensor": {"dtype": "DT_FLOAT", "tensorShape": {"dim": [{"size": "1"}, {"size": "1"}, {"size": "512"}, {"size": "1024"}]}}}, "dtype": {"type": "DT_FLOAT"}}}, {"name": "Conv2D_24/filter", "op": "Const", "attr": {"value": {"tensor": {"dtype": "DT_FLOAT", "tensorShape": {"dim": [{"size": "1"}, {"size": "1"}, {"size": "512"}, {"size": "256"}]}}}, "dtype": {"type": "DT_FLOAT"}}}, {"name": "Add_22/y", "op": "Const", "attr": {"dtype": {"type": "DT_FLOAT"}, "value": {"tensor": {"dtype": "DT_FLOAT", "tensorShape": {"dim": [{"size": "256"}]}}}}}, {"name": "Conv2D_25/filter", "op": "Const", "attr": {"dtype": {"type": "DT_FLOAT"}, "value": {"tensor": {"dtype": "DT_FLOAT", "tensorShape": {"dim": [{"size": "3"}, {"size": "3"}, {"size": "256"}, {"size": "256"}]}}}}}, {"name": "Add_23/y", "op": "Const", "attr": {"dtype": {"type": "DT_FLOAT"}, "value": {"tensor": {"dtype": "DT_FLOAT", "tensorShape": {"dim": [{"size": "256"}]}}}}}, {"name": "Conv2D_26/filter", "op": "Const", "attr": {"dtype": {"type": "DT_FLOAT"}, "value": {"tensor": {"dtype": "DT_FLOAT", "tensorShape": {"dim": [{"size": "1"}, {"size": "1"}, {"size": "256"}, {"size": "1024"}]}}}}}, {"name": "Conv2D_28/filter", "op": "Const", "attr": {"dtype": {"type": "DT_FLOAT"}, "value": {"tensor": {"dtype": "DT_FLOAT", "tensorShape": {"dim": [{"size": "1"}, {"size": "1"}, {"size": "1024"}, {"size": "256"}]}}}}}, {"name": "Add_25/y", "op": "Const", "attr": {"value": {"tensor": {"dtype": "DT_FLOAT", "tensorShape": {"dim": [{"size": "256"}]}}}, "dtype": {"type": "DT_FLOAT"}}}, {"name": "Conv2D_29/filter", "op": "Const", "attr": {"value": {"tensor": {"dtype": "DT_FLOAT", "tensorShape": {"dim": [{"size": "3"}, {"size": "3"}, {"size": "256"}, {"size": "256"}]}}}, "dtype": {"type": "DT_FLOAT"}}}, {"name": "Add_26/y", "op": "Const", "attr": {"dtype": {"type": "DT_FLOAT"}, "value": {"tensor": {"dtype": "DT_FLOAT", "tensorShape": {"dim": [{"size": "256"}]}}}}}, {"name": "Conv2D_30/filter", "op": "Const", "attr": {"dtype": {"type": "DT_FLOAT"}, "value": {"tensor": {"dtype": "DT_FLOAT", "tensorShape": {"dim": [{"size": "1"}, {"size": "1"}, {"size": "256"}, {"size": "1024"}]}}}}}, {"name": "Conv2D_31/filter", "op": "Const", "attr": {"dtype": {"type": "DT_FLOAT"}, "value": {"tensor": {"dtype": "DT_FLOAT", "tensorShape": {"dim": [{"size": "1"}, {"size": "1"}, {"size": "1024"}, {"size": "256"}]}}}}}, {"name": "Add_28/y", "op": "Const", "attr": {"dtype": {"type": "DT_FLOAT"}, "value": {"tensor": {"dtype": "DT_FLOAT", "tensorShape": {"dim": [{"size": "256"}]}}}}}, {"name": "Conv2D_32/filter", "op": "Const", "attr": {"dtype": {"type": "DT_FLOAT"}, "value": {"tensor": {"dtype": "DT_FLOAT", "tensorShape": {"dim": [{"size": "3"}, {"size": "3"}, {"size": "256"}, {"size": "256"}]}}}}}, {"name": "Add_29/y", "op": "Const", "attr": {"value": {"tensor": {"dtype": "DT_FLOAT", "tensorShape": {"dim": [{"size": "256"}]}}}, "dtype": {"type": "DT_FLOAT"}}}, {"name": "Conv2D_33/filter", "op": "Const", "attr": {"value": {"tensor": {"dtype": "DT_FLOAT", "tensorShape": {"dim": [{"size": "1"}, {"size": "1"}, {"size": "256"}, {"size": "1024"}]}}}, "dtype": {"type": "DT_FLOAT"}}}, {"name": "Conv2D_34/filter", "op": "Const", "attr": {"value": {"tensor": {"dtype": "DT_FLOAT", "tensorShape": {"dim": [{"size": "1"}, {"size": "1"}, {"size": "1024"}, {"size": "256"}]}}}, "dtype": {"type": "DT_FLOAT"}}}, {"name": "Add_31/y", "op": "Const", "attr": {"dtype": {"type": "DT_FLOAT"}, "value": {"tensor": {"dtype": "DT_FLOAT", "tensorShape": {"dim": [{"size": "256"}]}}}}}, {"name": "Conv2D_35/filter", "op": "Const", "attr": {"dtype": {"type": "DT_FLOAT"}, "value": {"tensor": {"dtype": "DT_FLOAT", "tensorShape": {"dim": [{"size": "3"}, {"size": "3"}, {"size": "256"}, {"size": "256"}]}}}}}, {"name": "Add_32/y", "op": "Const", "attr": {"value": {"tensor": {"dtype": "DT_FLOAT", "tensorShape": {"dim": [{"size": "256"}]}}}, "dtype": {"type": "DT_FLOAT"}}}, {"name": "Conv2D_36/filter", "op": "Const", "attr": {"dtype": {"type": "DT_FLOAT"}, "value": {"tensor": {"dtype": "DT_FLOAT", "tensorShape": {"dim": [{"size": "1"}, {"size": "1"}, {"size": "256"}, {"size": "1024"}]}}}}}, {"name": "Conv2D_37/filter", "op": "Const", "attr": {"dtype": {"type": "DT_FLOAT"}, "value": {"tensor": {"dtype": "DT_FLOAT", "tensorShape": {"dim": [{"size": "1"}, {"size": "1"}, {"size": "1024"}, {"size": "256"}]}}}}}, {"name": "Add_34/y", "op": "Const", "attr": {"dtype": {"type": "DT_FLOAT"}, "value": {"tensor": {"dtype": "DT_FLOAT", "tensorShape": {"dim": [{"size": "256"}]}}}}}, {"name": "Conv2D_38/filter", "op": "Const", "attr": {"value": {"tensor": {"dtype": "DT_FLOAT", "tensorShape": {"dim": [{"size": "3"}, {"size": "3"}, {"size": "256"}, {"size": "256"}]}}}, "dtype": {"type": "DT_FLOAT"}}}, {"name": "Add_35/y", "op": "Const", "attr": {"value": {"tensor": {"dtype": "DT_FLOAT", "tensorShape": {"dim": [{"size": "256"}]}}}, "dtype": {"type": "DT_FLOAT"}}}, {"name": "Conv2D_39/filter", "op": "Const", "attr": {"value": {"tensor": {"dtype": "DT_FLOAT", "tensorShape": {"dim": [{"size": "1"}, {"size": "1"}, {"size": "256"}, {"size": "1024"}]}}}, "dtype": {"type": "DT_FLOAT"}}}, {"name": "Conv2D_40/filter", "op": "Const", "attr": {"value": {"tensor": {"dtype": "DT_FLOAT", "tensorShape": {"dim": [{"size": "1"}, {"size": "1"}, {"size": "1024"}, {"size": "256"}]}}}, "dtype": {"type": "DT_FLOAT"}}}, {"name": "Add_37/y", "op": "Const", "attr": {"dtype": {"type": "DT_FLOAT"}, "value": {"tensor": {"dtype": "DT_FLOAT", "tensorShape": {"dim": [{"size": "256"}]}}}}}, {"name": "resnet_v1_50/block3/unit_6/bottleneck_v1/Pad/paddings", "op": "Const", "attr": {"dtype": {"type": "DT_INT32"}, "value": {"tensor": {"dtype": "DT_INT32", "tensorShape": {"dim": [{"size": "4"}, {"size": "2"}]}}}}}, {"name": "Conv2D_41/filter", "op": "Const", "attr": {"dtype": {"type": "DT_FLOAT"}, "value": {"tensor": {"dtype": "DT_FLOAT", "tensorShape": {"dim": [{"size": "3"}, {"size": "3"}, {"size": "256"}, {"size": "256"}]}}}}}, {"name": "Add_38/y", "op": "Const", "attr": {"dtype": {"type": "DT_FLOAT"}, "value": {"tensor": {"dtype": "DT_FLOAT", "tensorShape": {"dim": [{"size": "256"}]}}}}}, {"name": "Conv2D_42/filter", "op": "Const", "attr": {"dtype": {"type": "DT_FLOAT"}, "value": {"tensor": {"dtype": "DT_FLOAT", "tensorShape": {"dim": [{"size": "1"}, {"size": "1"}, {"size": "256"}, {"size": "1024"}]}}}}}, {"name": "tfl.conv_2d42/y", "op": "Const", "attr": {"dtype": {"type": "DT_FLOAT"}, "value": {"tensor": {"dtype": "DT_FLOAT", "tensorShape": {"dim": [{"size": "1024"}]}}}}}, {"name": "Conv2D_43/filter", "op": "Const", "attr": {"value": {"tensor": {"dtype": "DT_FLOAT", "tensorShape": {"dim": [{"size": "1"}, {"size": "1"}, {"size": "1024"}, {"size": "512"}]}}}, "dtype": {"type": "DT_FLOAT"}}}, {"name": "Add_40/y", "op": "Const", "attr": {"value": {"tensor": {"dtype": "DT_FLOAT", "tensorShape": {"dim": [{"size": "512"}]}}}, "dtype": {"type": "DT_FLOAT"}}}, {"name": "Conv2D_44/filter", "op": "Const", "attr": {"value": {"tensor": {"dtype": "DT_FLOAT", "tensorShape": {"dim": [{"size": "3"}, {"size": "3"}, {"size": "512"}, {"size": "512"}]}}}, "dtype": {"type": "DT_FLOAT"}}}, {"name": "Add_41/y", "op": "Const", "attr": {"dtype": {"type": "DT_FLOAT"}, "value": {"tensor": {"dtype": "DT_FLOAT", "tensorShape": {"dim": [{"size": "512"}]}}}}}, {"name": "Conv2D_45/filter", "op": "Const", "attr": {"dtype": {"type": "DT_FLOAT"}, "value": {"tensor": {"dtype": "DT_FLOAT", "tensorShape": {"dim": [{"size": "1"}, {"size": "1"}, {"size": "512"}, {"size": "2048"}]}}}}}, {"name": "Conv2D_47/filter", "op": "Const", "attr": {"dtype": {"type": "DT_FLOAT"}, "value": {"tensor": {"dtype": "DT_FLOAT", "tensorShape": {"dim": [{"size": "1"}, {"size": "1"}, {"size": "2048"}, {"size": "512"}]}}}}}, {"name": "Add_43/y", "op": "Const", "attr": {"dtype": {"type": "DT_FLOAT"}, "value": {"tensor": {"dtype": "DT_FLOAT", "tensorShape": {"dim": [{"size": "512"}]}}}}}, {"name": "Conv2D_48/filter", "op": "Const", "attr": {"value": {"tensor": {"dtype": "DT_FLOAT", "tensorShape": {"dim": [{"size": "3"}, {"size": "3"}, {"size": "512"}, {"size": "512"}]}}}, "dtype": {"type": "DT_FLOAT"}}}, {"name": "Add_44/y", "op": "Const", "attr": {"dtype": {"type": "DT_FLOAT"}, "value": {"tensor": {"dtype": "DT_FLOAT", "tensorShape": {"dim": [{"size": "512"}]}}}}}, {"name": "Conv2D_49/filter", "op": "Const", "attr": {"dtype": {"type": "DT_FLOAT"}, "value": {"tensor": {"dtype": "DT_FLOAT", "tensorShape": {"dim": [{"size": "1"}, {"size": "1"}, {"size": "512"}, {"size": "2048"}]}}}}}, {"name": "Conv2D_50/filter", "op": "Const", "attr": {"value": {"tensor": {"dtype": "DT_FLOAT", "tensorShape": {"dim": [{"size": "1"}, {"size": "1"}, {"size": "2048"}, {"size": "512"}]}}}, "dtype": {"type": "DT_FLOAT"}}}, {"name": "Add_46/y", "op": "Const", "attr": {"dtype": {"type": "DT_FLOAT"}, "value": {"tensor": {"dtype": "DT_FLOAT", "tensorShape": {"dim": [{"size": "512"}]}}}}}, {"name": "Conv2D_51/filter", "op": "Const", "attr": {"value": {"tensor": {"dtype": "DT_FLOAT", "tensorShape": {"dim": [{"size": "3"}, {"size": "3"}, {"size": "512"}, {"size": "512"}]}}}, "dtype": {"type": "DT_FLOAT"}}}, {"name": "Add_47/y", "op": "Const", "attr": {"value": {"tensor": {"dtype": "DT_FLOAT", "tensorShape": {"dim": [{"size": "512"}]}}}, "dtype": {"type": "DT_FLOAT"}}}, {"name": "Conv2D_52/filter", "op": "Const", "attr": {"value": {"tensor": {"dtype": "DT_FLOAT", "tensorShape": {"dim": [{"size": "1"}, {"size": "1"}, {"size": "512"}, {"size": "2048"}]}}}, "dtype": {"type": "DT_FLOAT"}}}, {"name": "feature_fusion/ResizeBilinear_lambda/resize/size", "op": "Const", "attr": {"dtype": {"type": "DT_INT32"}, "value": {"tensor": {"dtype": "DT_INT32", "tensorShape": {"dim": [{"size": "2"}]}}}}}, {"name": "tfl.conv_2d20/y", "op": "Const", "attr": {"value": {"tensor": {"dtype": "DT_FLOAT", "tensorShape": {"dim": [{"size": "512"}]}}}, "dtype": {"type": "DT_FLOAT"}}}, {"name": "tfl.conv_2d17/y", "op": "Const", "attr": {"value": {"tensor": {"dtype": "DT_FLOAT", "tensorShape": {"dim": [{"size": "512"}]}}}, "dtype": {"type": "DT_FLOAT"}}}, {"name": "ArithmeticOptimizer/AddOpsRewrite_Leaf_0_Add_12", "op": "Const", "attr": {"value": {"tensor": {"dtype": "DT_FLOAT", "tensorShape": {"dim": [{"size": "512"}]}}}, "dtype": {"type": "DT_FLOAT"}}}, {"name": "Conv2D_14/filter", "op": "Const", "attr": {"value": {"tensor": {"dtype": "DT_FLOAT", "tensorShape": {"dim": [{"size": "1"}, {"size": "1"}, {"size": "256"}, {"size": "512"}]}}}, "dtype": {"type": "DT_FLOAT"}}}, {"name": "Conv2D_11/filter", "op": "Const", "attr": {"dtype": {"type": "DT_FLOAT"}, "value": {"tensor": {"dtype": "DT_FLOAT", "tensorShape": {"dim": [{"size": "1"}, {"size": "1"}, {"size": "256"}, {"size": "128"}]}}}}}, {"name": "Add_10/y", "op": "Const", "attr": {"value": {"tensor": {"dtype": "DT_FLOAT", "tensorShape": {"dim": [{"size": "128"}]}}}, "dtype": {"type": "DT_FLOAT"}}}, {"name": "Conv2D_12/filter", "op": "Const", "attr": {"dtype": {"type": "DT_FLOAT"}, "value": {"tensor": {"dtype": "DT_FLOAT", "tensorShape": {"dim": [{"size": "3"}, {"size": "3"}, {"size": "128"}, {"size": "128"}]}}}}}, {"name": "Add_11/y", "op": "Const", "attr": {"dtype": {"type": "DT_FLOAT"}, "value": {"tensor": {"dtype": "DT_FLOAT", "tensorShape": {"dim": [{"size": "128"}]}}}}}, {"name": "Conv2D_13/filter", "op": "Const", "attr": {"value": {"tensor": {"dtype": "DT_FLOAT", "tensorShape": {"dim": [{"size": "1"}, {"size": "1"}, {"size": "128"}, {"size": "512"}]}}}, "dtype": {"type": "DT_FLOAT"}}}, {"name": "Conv2D_15/filter", "op": "Const", "attr": {"value": {"tensor": {"dtype": "DT_FLOAT", "tensorShape": {"dim": [{"size": "1"}, {"size": "1"}, {"size": "512"}, {"size": "128"}]}}}, "dtype": {"type": "DT_FLOAT"}}}, {"name": "Add_13/y", "op": "Const", "attr": {"dtype": {"type": "DT_FLOAT"}, "value": {"tensor": {"dtype": "DT_FLOAT", "tensorShape": {"dim": [{"size": "128"}]}}}}}, {"name": "Conv2D_16/filter", "op": "Const", "attr": {"value": {"tensor": {"dtype": "DT_FLOAT", "tensorShape": {"dim": [{"size": "3"}, {"size": "3"}, {"size": "128"}, {"size": "128"}]}}}, "dtype": {"type": "DT_FLOAT"}}}, {"name": "Add_14/y", "op": "Const", "attr": {"dtype": {"type": "DT_FLOAT"}, "value": {"tensor": {"dtype": "DT_FLOAT", "tensorShape": {"dim": [{"size": "128"}]}}}}}, {"name": "Conv2D_17/filter", "op": "Const", "attr": {"value": {"tensor": {"dtype": "DT_FLOAT", "tensorShape": {"dim": [{"size": "1"}, {"size": "1"}, {"size": "128"}, {"size": "512"}]}}}, "dtype": {"type": "DT_FLOAT"}}}, {"name": "Conv2D_18/filter", "op": "Const", "attr": {"dtype": {"type": "DT_FLOAT"}, "value": {"tensor": {"dtype": "DT_FLOAT", "tensorShape": {"dim": [{"size": "1"}, {"size": "1"}, {"size": "512"}, {"size": "128"}]}}}}}, {"name": "Add_16/y", "op": "Const", "attr": {"value": {"tensor": {"dtype": "DT_FLOAT", "tensorShape": {"dim": [{"size": "128"}]}}}, "dtype": {"type": "DT_FLOAT"}}}, {"name": "Conv2D_19/filter", "op": "Const", "attr": {"value": {"tensor": {"dtype": "DT_FLOAT", "tensorShape": {"dim": [{"size": "3"}, {"size": "3"}, {"size": "128"}, {"size": "128"}]}}}, "dtype": {"type": "DT_FLOAT"}}}, {"name": "Add_17/y", "op": "Const", "attr": {"dtype": {"type": "DT_FLOAT"}, "value": {"tensor": {"dtype": "DT_FLOAT", "tensorShape": {"dim": [{"size": "128"}]}}}}}, {"name": "Conv2D_20/filter", "op": "Const", "attr": {"value": {"tensor": {"dtype": "DT_FLOAT", "tensorShape": {"dim": [{"size": "1"}, {"size": "1"}, {"size": "128"}, {"size": "512"}]}}}, "dtype": {"type": "DT_FLOAT"}}}, {"name": "Conv2D_21/filter", "op": "Const", "attr": {"value": {"tensor": {"dtype": "DT_FLOAT", "tensorShape": {"dim": [{"size": "1"}, {"size": "1"}, {"size": "512"}, {"size": "128"}]}}}, "dtype": {"type": "DT_FLOAT"}}}, {"name": "Add_19/y", "op": "Const", "attr": {"value": {"tensor": {"dtype": "DT_FLOAT", "tensorShape": {"dim": [{"size": "128"}]}}}, "dtype": {"type": "DT_FLOAT"}}}, {"name": "resnet_v1_50/block2/unit_4/bottleneck_v1/Pad/paddings", "op": "Const", "attr": {"value": {"tensor": {"dtype": "DT_INT32", "tensorShape": {"dim": [{"size": "4"}, {"size": "2"}]}}}, "dtype": {"type": "DT_INT32"}}}, {"name": "Conv2D_22/filter", "op": "Const", "attr": {"dtype": {"type": "DT_FLOAT"}, "value": {"tensor": {"dtype": "DT_FLOAT", "tensorShape": {"dim": [{"size": "3"}, {"size": "3"}, {"size": "128"}, {"size": "128"}]}}}}}, {"name": "Add_20/y", "op": "Const", "attr": {"dtype": {"type": "DT_FLOAT"}, "value": {"tensor": {"dtype": "DT_FLOAT", "tensorShape": {"dim": [{"size": "128"}]}}}}}, {"name": "Conv2D_23/filter", "op": "Const", "attr": {"value": {"tensor": {"dtype": "DT_FLOAT", "tensorShape": {"dim": [{"size": "1"}, {"size": "1"}, {"size": "128"}, {"size": "512"}]}}}, "dtype": {"type": "DT_FLOAT"}}}, {"name": "tfl.conv_2d23/y", "op": "Const", "attr": {"value": {"tensor": {"dtype": "DT_FLOAT", "tensorShape": {"dim": [{"size": "512"}]}}}, "dtype": {"type": "DT_FLOAT"}}}, {"name": "feature_fusion/concat/axis", "op": "Const", "attr": {"value": {"tensor": {"dtype": "DT_INT32", "tensorShape": {}}}, "dtype": {"type": "DT_INT32"}}}, {"name": "Conv2D_53/filter", "op": "Const", "attr": {"value": {"tensor": {"dtype": "DT_FLOAT", "tensorShape": {"dim": [{"size": "1"}, {"size": "1"}, {"size": "2560"}, {"size": "128"}]}}}, "dtype": {"type": "DT_FLOAT"}}}, {"name": "Add_49/y", "op": "Const", "attr": {"dtype": {"type": "DT_FLOAT"}, "value": {"tensor": {"dtype": "DT_FLOAT", "tensorShape": {"dim": [{"size": "128"}]}}}}}, {"name": "Conv2D_54/filter", "op": "Const", "attr": {"value": {"tensor": {"dtype": "DT_FLOAT", "tensorShape": {"dim": [{"size": "3"}, {"size": "3"}, {"size": "128"}, {"size": "128"}]}}}, "dtype": {"type": "DT_FLOAT"}}}, {"name": "Add_50/y", "op": "Const", "attr": {"dtype": {"type": "DT_FLOAT"}, "value": {"tensor": {"dtype": "DT_FLOAT", "tensorShape": {"dim": [{"size": "128"}]}}}}}, {"name": "feature_fusion/ResizeBilinear_1_lambda/resize/size", "op": "Const", "attr": {"dtype": {"type": "DT_INT32"}, "value": {"tensor": {"dtype": "DT_INT32", "tensorShape": {"dim": [{"size": "2"}]}}}}}, {"name": "tfl.conv_2d7/y", "op": "Const", "attr": {"dtype": {"type": "DT_FLOAT"}, "value": {"tensor": {"dtype": "DT_FLOAT", "tensorShape": {"dim": [{"size": "256"}]}}}}}, {"name": "ArithmeticOptimizer/AddOpsRewrite_Leaf_0_Add_3", "op": "Const", "attr": {"dtype": {"type": "DT_FLOAT"}, "value": {"tensor": {"dtype": "DT_FLOAT", "tensorShape": {"dim": [{"size": "256"}]}}}}}, {"name": "Conv2D_4/filter", "op": "Const", "attr": {"value": {"tensor": {"dtype": "DT_FLOAT", "tensorShape": {"dim": [{"size": "1"}, {"size": "1"}, {"size": "64"}, {"size": "256"}]}}}, "dtype": {"type": "DT_FLOAT"}}}, {"name": "Conv2D_1/filter", "op": "Const", "attr": {"value": {"tensor": {"dtype": "DT_FLOAT", "tensorShape": {"dim": [{"size": "1"}, {"size": "1"}, {"size": "64"}, {"size": "64"}]}}}, "dtype": {"type": "DT_FLOAT"}}}, {"name": "Add_1/y", "op": "Const", "attr": {"dtype": {"type": "DT_FLOAT"}, "value": {"tensor": {"dtype": "DT_FLOAT", "tensorShape": {"dim": [{"size": "64"}]}}}}}, {"name": "Conv2D_2/filter", "op": "Const", "attr": {"dtype": {"type": "DT_FLOAT"}, "value": {"tensor": {"dtype": "DT_FLOAT", "tensorShape": {"dim": [{"size": "3"}, {"size": "3"}, {"size": "64"}, {"size": "64"}]}}}}}, {"name": "Add_2/y", "op": "Const", "attr": {"dtype": {"type": "DT_FLOAT"}, "value": {"tensor": {"dtype": "DT_FLOAT", "tensorShape": {"dim": [{"size": "64"}]}}}}}, {"name": "Conv2D_3/filter", "op": "Const", "attr": {"value": {"tensor": {"dtype": "DT_FLOAT", "tensorShape": {"dim": [{"size": "1"}, {"size": "1"}, {"size": "64"}, {"size": "256"}]}}}, "dtype": {"type": "DT_FLOAT"}}}, {"name": "Conv2D_5/filter", "op": "Const", "attr": {"dtype": {"type": "DT_FLOAT"}, "value": {"tensor": {"dtype": "DT_FLOAT", "tensorShape": {"dim": [{"size": "1"}, {"size": "1"}, {"size": "256"}, {"size": "64"}]}}}}}, {"name": "Add_4/y", "op": "Const", "attr": {"value": {"tensor": {"dtype": "DT_FLOAT", "tensorShape": {"dim": [{"size": "64"}]}}}, "dtype": {"type": "DT_FLOAT"}}}, {"name": "Conv2D_6/filter", "op": "Const", "attr": {"value": {"tensor": {"dtype": "DT_FLOAT", "tensorShape": {"dim": [{"size": "3"}, {"size": "3"}, {"size": "64"}, {"size": "64"}]}}}, "dtype": {"type": "DT_FLOAT"}}}, {"name": "Add_5/y", "op": "Const", "attr": {"dtype": {"type": "DT_FLOAT"}, "value": {"tensor": {"dtype": "DT_FLOAT", "tensorShape": {"dim": [{"size": "64"}]}}}}}, {"name": "Conv2D_7/filter", "op": "Const", "attr": {"value": {"tensor": {"dtype": "DT_FLOAT", "tensorShape": {"dim": [{"size": "1"}, {"size": "1"}, {"size": "64"}, {"size": "256"}]}}}, "dtype": {"type": "DT_FLOAT"}}}, {"name": "Conv2D_8/filter", "op": "Const", "attr": {"dtype": {"type": "DT_FLOAT"}, "value": {"tensor": {"dtype": "DT_FLOAT", "tensorShape": {"dim": [{"size": "1"}, {"size": "1"}, {"size": "256"}, {"size": "64"}]}}}}}, {"name": "Add_7/y", "op": "Const", "attr": {"value": {"tensor": {"dtype": "DT_FLOAT", "tensorShape": {"dim": [{"size": "64"}]}}}, "dtype": {"type": "DT_FLOAT"}}}, {"name": "resnet_v1_50/block1/unit_3/bottleneck_v1/Pad/paddings", "op": "Const", "attr": {"dtype": {"type": "DT_INT32"}, "value": {"tensor": {"dtype": "DT_INT32", "tensorShape": {"dim": [{"size": "4"}, {"size": "2"}]}}}}}, {"name": "Conv2D_9/filter", "op": "Const", "attr": {"value": {"tensor": {"dtype": "DT_FLOAT", "tensorShape": {"dim": [{"size": "3"}, {"size": "3"}, {"size": "64"}, {"size": "64"}]}}}, "dtype": {"type": "DT_FLOAT"}}}, {"name": "Add_8/y", "op": "Const", "attr": {"dtype": {"type": "DT_FLOAT"}, "value": {"tensor": {"dtype": "DT_FLOAT", "tensorShape": {"dim": [{"size": "64"}]}}}}}, {"name": "Conv2D_10/filter", "op": "Const", "attr": {"value": {"tensor": {"dtype": "DT_FLOAT", "tensorShape": {"dim": [{"size": "1"}, {"size": "1"}, {"size": "64"}, {"size": "256"}]}}}, "dtype": {"type": "DT_FLOAT"}}}, {"name": "tfl.conv_2d10/y", "op": "Const", "attr": {"value": {"tensor": {"dtype": "DT_FLOAT", "tensorShape": {"dim": [{"size": "256"}]}}}, "dtype": {"type": "DT_FLOAT"}}}, {"name": "feature_fusion/concat_1/axis", "op": "Const", "attr": {"value": {"tensor": {"dtype": "DT_INT32", "tensorShape": {}}}, "dtype": {"type": "DT_INT32"}}}, {"name": "Conv2D_55/filter", "op": "Const", "attr": {"value": {"tensor": {"dtype": "DT_FLOAT", "tensorShape": {"dim": [{"size": "1"}, {"size": "1"}, {"size": "384"}, {"size": "64"}]}}}, "dtype": {"type": "DT_FLOAT"}}}, {"name": "Add_51/y", "op": "Const", "attr": {"value": {"tensor": {"dtype": "DT_FLOAT", "tensorShape": {"dim": [{"size": "64"}]}}}, "dtype": {"type": "DT_FLOAT"}}}, {"name": "Conv2D_56/filter", "op": "Const", "attr": {"dtype": {"type": "DT_FLOAT"}, "value": {"tensor": {"dtype": "DT_FLOAT", "tensorShape": {"dim": [{"size": "3"}, {"size": "3"}, {"size": "64"}, {"size": "64"}]}}}}}, {"name": "Add_52/y", "op": "Const", "attr": {"dtype": {"type": "DT_FLOAT"}, "value": {"tensor": {"dtype": "DT_FLOAT", "tensorShape": {"dim": [{"size": "64"}]}}}}}, {"name": "feature_fusion/ResizeBilinear_2_lambda/resize/size", "op": "Const", "attr": {"dtype": {"type": "DT_INT32"}, "value": {"tensor": {"dtype": "DT_INT32", "tensorShape": {"dim": [{"size": "2"}]}}}}}, {"name": "resnet_v1_50/Pad/paddings", "op": "Const", "attr": {"value": {"tensor": {"dtype": "DT_INT32", "tensorShape": {"dim": [{"size": "4"}, {"size": "2"}]}}}, "dtype": {"type": "DT_INT32"}}}, {"name": "Conv2D/filter", "op": "Const", "attr": {"dtype": {"type": "DT_FLOAT"}, "value": {"tensor": {"dtype": "DT_FLOAT", "tensorShape": {"dim": [{"size": "7"}, {"size": "7"}, {"size": "3"}, {"size": "64"}]}}}}}, {"name": "Add/y", "op": "Const", "attr": {"value": {"tensor": {"dtype": "DT_FLOAT", "tensorShape": {"dim": [{"size": "64"}]}}}, "dtype": {"type": "DT_FLOAT"}}}, {"name": "feature_fusion/concat_2/axis", "op": "Const", "attr": {"dtype": {"type": "DT_INT32"}, "value": {"tensor": {"dtype": "DT_INT32", "tensorShape": {}}}}}, {"name": "Conv2D_57/filter", "op": "Const", "attr": {"dtype": {"type": "DT_FLOAT"}, "value": {"tensor": {"dtype": "DT_FLOAT", "tensorShape": {"dim": [{"size": "1"}, {"size": "1"}, {"size": "128"}, {"size": "32"}]}}}}}, {"name": "Add_53/y", "op": "Const", "attr": {"value": {"tensor": {"dtype": "DT_FLOAT", "tensorShape": {"dim": [{"size": "32"}]}}}, "dtype": {"type": "DT_FLOAT"}}}, {"name": "Conv2D_58/filter", "op": "Const", "attr": {"value": {"tensor": {"dtype": "DT_FLOAT", "tensorShape": {"dim": [{"size": "3"}, {"size": "3"}, {"size": "32"}, {"size": "32"}]}}}, "dtype": {"type": "DT_FLOAT"}}}, {"name": "Add_54/y", "op": "Const", "attr": {"dtype": {"type": "DT_FLOAT"}, "value": {"tensor": {"dtype": "DT_FLOAT", "tensorShape": {"dim": [{"size": "32"}]}}}}}, {"name": "Conv2D_59/filter", "op": "Const", "attr": {"dtype": {"type": "DT_FLOAT"}, "value": {"tensor": {"dtype": "DT_FLOAT", "tensorShape": {"dim": [{"size": "3"}, {"size": "3"}, {"size": "32"}, {"size": "32"}]}}}}}, {"name": "Add_55/y", "op": "Const", "attr": {"value": {"tensor": {"dtype": "DT_FLOAT", "tensorShape": {"dim": [{"size": "32"}]}}}, "dtype": {"type": "DT_FLOAT"}}}, {"name": "Conv2D_62/filter", "op": "Const", "attr": {"dtype": {"type": "DT_FLOAT"}, "value": {"tensor": {"dtype": "DT_FLOAT", "tensorShape": {"dim": [{"size": "1"}, {"size": "1"}, {"size": "32"}, {"size": "1"}]}}}}}, {"name": "tfl.conv_2d62/y", "op": "Const", "attr": {"dtype": {"type": "DT_FLOAT"}, "value": {"tensor": {"dtype": "DT_FLOAT", "tensorShape": {"dim": [{"size": "1"}]}}}}}, {"name": "feature_fusion/sub/y", "op": "Const", "attr": {"dtype": {"type": "DT_FLOAT"}, "value": {"tensor": {"dtype": "DT_FLOAT", "tensorShape": {}}}}}, {"name": "feature_fusion/mul_7/y", "op": "Const", "attr": {"value": {"tensor": {"dtype": "DT_FLOAT", "tensorShape": {}}}, "dtype": {"type": "DT_FLOAT"}}}, {"name": "feature_fusion/concat_3/axis", "op": "Const", "attr": {"value": {"tensor": {"dtype": "DT_INT32", "tensorShape": {}}}, "dtype": {"type": "DT_INT32"}}}, {"name": "input_images", "op": "Placeholder", "attr": {"dtype": {"type": "DT_FLOAT"}, "shape": {"shape": {"dim": [{"size": "1"}, {"size": "320"}, {"size": "320"}, {"size": "3"}]}}}}, {"name": "resnet_v1_50/Pad", "op": "Pad", "input": ["input_images", "resnet_v1_50/Pad/paddings"], "attr": {"Tpaddings": {"type": "DT_INT32"}, "T": {"type": "DT_FLOAT"}}}, {"name": "Conv2D", "op": "Conv2D", "input": ["resnet_v1_50/Pad", "Conv2D/filter"], "device": "/device:CPU:0", "attr": {"padding": {"s": "VkFMSUQ="}, "data_format": {"s": "TkhXQw=="}, "explicit_paddings": {"list": {}}, "dilations": {"list": {"i": ["1", "1", "1", "1"]}}, "strides": {"list": {"i": ["1", "2", "2", "1"]}}, "use_cudnn_on_gpu": {"b": true}, "T": {"type": "DT_FLOAT"}}}, {"name": "Add", "op": "AddV2", "input": ["Conv2D", "Add/y"], "attr": {"T": {"type": "DT_FLOAT"}}}, {"name": "resnet_v1_50/pool1/MaxPool", "op": "MaxPool", "input": ["Add"], "attr": {"T": {"type": "DT_FLOAT"}, "strides": {"list": {"i": ["1", "2", "2", "1"]}}, "padding": {"s": "U0FNRQ=="}, "ksize": {"list": {"i": ["1", "3", "3", "1"]}}, "data_format": {"s": "TkhXQw=="}, "explicit_paddings": {"list": {}}}}, {"name": "tfl.conv_2d", "op": "Relu", "input": ["resnet_v1_50/pool1/MaxPool"], "attr": {"T": {"type": "DT_FLOAT"}}}, {"name": "Conv2D_4", "op": "Conv2D", "input": ["tfl.conv_2d", "Conv2D_4/filter"], "device": "/device:CPU:0", "attr": {"dilations": {"list": {"i": ["1", "1", "1", "1"]}}, "explicit_paddings": {"list": {}}, "padding": {"s": "U0FNRQ=="}, "T": {"type": "DT_FLOAT"}, "use_cudnn_on_gpu": {"b": true}, "strides": {"list": {"i": ["1", "1", "1", "1"]}}, "data_format": {"s": "TkhXQw=="}}}, {"name": "Conv2D_1", "op": "Conv2D", "input": ["tfl.conv_2d", "Conv2D_1/filter"], "device": "/device:CPU:0", "attr": {"T": {"type": "DT_FLOAT"}, "strides": {"list": {"i": ["1", "1", "1", "1"]}}, "use_cudnn_on_gpu": {"b": true}, "explicit_paddings": {"list": {}}, "dilations": {"list": {"i": ["1", "1", "1", "1"]}}, "data_format": {"s": "TkhXQw=="}, "padding": {"s": "U0FNRQ=="}}}, {"name": "Add_1", "op": "AddV2", "input": ["Conv2D_1", "Add_1/y"], "attr": {"T": {"type": "DT_FLOAT"}}}, {"name": "tfl.conv_2d1", "op": "Relu", "input": ["Add_1"], "attr": {"T": {"type": "DT_FLOAT"}}}, {"name": "Conv2D_2", "op": "Conv2D", "input": ["tfl.conv_2d1", "Conv2D_2/filter"], "device": "/device:CPU:0", "attr": {"data_format": {"s": "TkhXQw=="}, "use_cudnn_on_gpu": {"b": true}, "explicit_paddings": {"list": {}}, "strides": {"list": {"i": ["1", "1", "1", "1"]}}, "T": {"type": "DT_FLOAT"}, "dilations": {"list": {"i": ["1", "1", "1", "1"]}}, "padding": {"s": "U0FNRQ=="}}}, {"name": "Add_2", "op": "AddV2", "input": ["Conv2D_2", "Add_2/y"], "attr": {"T": {"type": "DT_FLOAT"}}}, {"name": "tfl.conv_2d2", "op": "Relu", "input": ["Add_2"], "attr": {"T": {"type": "DT_FLOAT"}}}, {"name": "Conv2D_3", "op": "Conv2D", "input": ["tfl.conv_2d2", "Conv2D_3/filter"], "device": "/device:CPU:0", "attr": {"use_cudnn_on_gpu": {"b": true}, "data_format": {"s": "TkhXQw=="}, "explicit_paddings": {"list": {}}, "strides": {"list": {"i": ["1", "1", "1", "1"]}}, "T": {"type": "DT_FLOAT"}, "dilations": {"list": {"i": ["1", "1", "1", "1"]}}, "padding": {"s": "U0FNRQ=="}}}, {"name": "ArithmeticOptimizer/AddOpsRewrite_Leaf_1_Add_3", "op": "AddN", "input": ["Conv2D_4", "Conv2D_3"], "attr": {"N": {"i": "2"}, "T": {"type": "DT_FLOAT"}, "_grappler_ArithmeticOptimizer_AddOpsRewriteStage": {"b": true}}}, {"name": "ArithmeticOptimizer/AddOpsRewrite_Add_3", "op": "AddV2", "input": ["ArithmeticOptimizer/AddOpsRewrite_Leaf_0_Add_3", "ArithmeticOptimizer/AddOpsRewrite_Leaf_1_Add_3"], "attr": {"_grappler_ArithmeticOptimizer_AddOpsRewriteStage": {"b": true}, "T": {"type": "DT_FLOAT"}}}, {"name": "tfl.add", "op": "Relu", "input": ["ArithmeticOptimizer/AddOpsRewrite_Add_3"], "attr": {"T": {"type": "DT_FLOAT"}}}, {"name": "Conv2D_5", "op": "Conv2D", "input": ["tfl.add", "Conv2D_5/filter"], "device": "/device:CPU:0", "attr": {"data_format": {"s": "TkhXQw=="}, "use_cudnn_on_gpu": {"b": true}, "dilations": {"list": {"i": ["1", "1", "1", "1"]}}, "T": {"type": "DT_FLOAT"}, "strides": {"list": {"i": ["1", "1", "1", "1"]}}, "padding": {"s": "U0FNRQ=="}, "explicit_paddings": {"list": {}}}}, {"name": "Add_4", "op": "AddV2", "input": ["Conv2D_5", "Add_4/y"], "attr": {"T": {"type": "DT_FLOAT"}}}, {"name": "tfl.conv_2d5", "op": "Relu", "input": ["Add_4"], "attr": {"T": {"type": "DT_FLOAT"}}}, {"name": "Conv2D_6", "op": "Conv2D", "input": ["tfl.conv_2d5", "Conv2D_6/filter"], "device": "/device:CPU:0", "attr": {"explicit_paddings": {"list": {}}, "padding": {"s": "U0FNRQ=="}, "dilations": {"list": {"i": ["1", "1", "1", "1"]}}, "data_format": {"s": "TkhXQw=="}, "strides": {"list": {"i": ["1", "1", "1", "1"]}}, "use_cudnn_on_gpu": {"b": true}, "T": {"type": "DT_FLOAT"}}}, {"name": "Add_5", "op": "AddV2", "input": ["Conv2D_6", "Add_5/y"], "attr": {"T": {"type": "DT_FLOAT"}}}, {"name": "tfl.conv_2d6", "op": "Relu", "input": ["Add_5"], "attr": {"T": {"type": "DT_FLOAT"}}}, {"name": "Conv2D_7", "op": "Conv2D", "input": ["tfl.conv_2d6", "Conv2D_7/filter"], "device": "/device:CPU:0", "attr": {"padding": {"s": "U0FNRQ=="}, "T": {"type": "DT_FLOAT"}, "use_cudnn_on_gpu": {"b": true}, "strides": {"list": {"i": ["1", "1", "1", "1"]}}, "explicit_paddings": {"list": {}}, "dilations": {"list": {"i": ["1", "1", "1", "1"]}}, "data_format": {"s": "TkhXQw=="}}}, {"name": "ArithmeticOptimizer/AddOpsRewrite_Leaf_1_Add_6", "op": "AddN", "input": ["tfl.add", "Conv2D_7"], "attr": {"N": {"i": "2"}, "T": {"type": "DT_FLOAT"}, "_grappler_ArithmeticOptimizer_AddOpsRewriteStage": {"b": true}}}, {"name": "ArithmeticOptimizer/AddOpsRewrite_Add_6", "op": "AddV2", "input": ["tfl.conv_2d7/y", "ArithmeticOptimizer/AddOpsRewrite_Leaf_1_Add_6"], "attr": {"_grappler_ArithmeticOptimizer_AddOpsRewriteStage": {"b": true}, "T": {"type": "DT_FLOAT"}}}, {"name": "tfl.add1", "op": "Relu", "input": ["ArithmeticOptimizer/AddOpsRewrite_Add_6"], "attr": {"T": {"type": "DT_FLOAT"}}}, {"name": "resnet_v1_50/block1/unit_3/bottleneck_v1/shortcut/MaxPool", "op": "MaxPool", "input": ["tfl.add1"], "attr": {"ksize": {"list": {"i": ["1", "1", "1", "1"]}}, "explicit_paddings": {"list": {}}, "T": {"type": "DT_FLOAT"}, "data_format": {"s": "TkhXQw=="}, "strides": {"list": {"i": ["1", "2", "2", "1"]}}, "padding": {"s": "U0FNRQ=="}}}, {"name": "Conv2D_8", "op": "Conv2D", "input": ["tfl.add1", "Conv2D_8/filter"], "device": "/device:CPU:0", "attr": {"dilations": {"list": {"i": ["1", "1", "1", "1"]}}, "T": {"type": "DT_FLOAT"}, "padding": {"s": "U0FNRQ=="}, "use_cudnn_on_gpu": {"b": true}, "strides": {"list": {"i": ["1", "1", "1", "1"]}}, "data_format": {"s": "TkhXQw=="}, "explicit_paddings": {"list": {}}}}, {"name": "Add_7", "op": "AddV2", "input": ["Conv2D_8", "Add_7/y"], "attr": {"T": {"type": "DT_FLOAT"}}}, {"name": "tfl.conv_2d8", "op": "Relu", "input": ["Add_7"], "attr": {"T": {"type": "DT_FLOAT"}}}, {"name": "resnet_v1_50/block1/unit_3/bottleneck_v1/Pad", "op": "Pad", "input": ["tfl.conv_2d8", "resnet_v1_50/block1/unit_3/bottleneck_v1/Pad/paddings"], "attr": {"Tpaddings": {"type": "DT_INT32"}, "T": {"type": "DT_FLOAT"}}}, {"name": "Conv2D_9", "op": "Conv2D", "input": ["resnet_v1_50/block1/unit_3/bottleneck_v1/Pad", "Conv2D_9/filter"], "device": "/device:CPU:0", "attr": {"dilations": {"list": {"i": ["1", "1", "1", "1"]}}, "padding": {"s": "VkFMSUQ="}, "data_format": {"s": "TkhXQw=="}, "explicit_paddings": {"list": {}}, "strides": {"list": {"i": ["1", "2", "2", "1"]}}, "use_cudnn_on_gpu": {"b": true}, "T": {"type": "DT_FLOAT"}}}, {"name": "Add_8", "op": "AddV2", "input": ["Conv2D_9", "Add_8/y"], "attr": {"T": {"type": "DT_FLOAT"}}}, {"name": "tfl.conv_2d9", "op": "Relu", "input": ["Add_8"], "attr": {"T": {"type": "DT_FLOAT"}}}, {"name": "Conv2D_10", "op": "Conv2D", "input": ["tfl.conv_2d9", "Conv2D_10/filter"], "device": "/device:CPU:0", "attr": {"dilations": {"list": {"i": ["1", "1", "1", "1"]}}, "explicit_paddings": {"list": {}}, "strides": {"list": {"i": ["1", "1", "1", "1"]}}, "T": {"type": "DT_FLOAT"}, "use_cudnn_on_gpu": {"b": true}, "data_format": {"s": "TkhXQw=="}, "padding": {"s": "U0FNRQ=="}}}, {"name": "tfl.conv_2d10", "op": "AddV2", "input": ["Conv2D_10", "tfl.conv_2d10/y"], "attr": {"T": {"type": "DT_FLOAT"}}}, {"name": "Add_9", "op": "AddV2", "input": ["resnet_v1_50/block1/unit_3/bottleneck_v1/shortcut/MaxPool", "tfl.conv_2d10"], "attr": {"T": {"type": "DT_FLOAT"}}}, {"name": "tfl.add2", "op": "Relu", "input": ["Add_9"], "attr": {"T": {"type": "DT_FLOAT"}}}, {"name": "Conv2D_14", "op": "Conv2D", "input": ["tfl.add2", "Conv2D_14/filter"], "device": "/device:CPU:0", "attr": {"data_format": {"s": "TkhXQw=="}, "dilations": {"list": {"i": ["1", "1", "1", "1"]}}, "explicit_paddings": {"list": {}}, "padding": {"s": "U0FNRQ=="}, "strides": {"list": {"i": ["1", "1", "1", "1"]}}, "use_cudnn_on_gpu": {"b": true}, "T": {"type": "DT_FLOAT"}}}, {"name": "Conv2D_11", "op": "Conv2D", "input": ["tfl.add2", "Conv2D_11/filter"], "device": "/device:CPU:0", "attr": {"use_cudnn_on_gpu": {"b": true}, "padding": {"s": "U0FNRQ=="}, "dilations": {"list": {"i": ["1", "1", "1", "1"]}}, "strides": {"list": {"i": ["1", "1", "1", "1"]}}, "T": {"type": "DT_FLOAT"}, "data_format": {"s": "TkhXQw=="}, "explicit_paddings": {"list": {}}}}, {"name": "Add_10", "op": "AddV2", "input": ["Conv2D_11", "Add_10/y"], "attr": {"T": {"type": "DT_FLOAT"}}}, {"name": "tfl.conv_2d11", "op": "Relu", "input": ["Add_10"], "attr": {"T": {"type": "DT_FLOAT"}}}, {"name": "Conv2D_12", "op": "Conv2D", "input": ["tfl.conv_2d11", "Conv2D_12/filter"], "device": "/device:CPU:0", "attr": {"T": {"type": "DT_FLOAT"}, "padding": {"s": "U0FNRQ=="}, "data_format": {"s": "TkhXQw=="}, "use_cudnn_on_gpu": {"b": true}, "explicit_paddings": {"list": {}}, "dilations": {"list": {"i": ["1", "1", "1", "1"]}}, "strides": {"list": {"i": ["1", "1", "1", "1"]}}}}, {"name": "Add_11", "op": "AddV2", "input": ["Conv2D_12", "Add_11/y"], "attr": {"T": {"type": "DT_FLOAT"}}}, {"name": "tfl.conv_2d12", "op": "Relu", "input": ["Add_11"], "attr": {"T": {"type": "DT_FLOAT"}}}, {"name": "Conv2D_13", "op": "Conv2D", "input": ["tfl.conv_2d12", "Conv2D_13/filter"], "device": "/device:CPU:0", "attr": {"dilations": {"list": {"i": ["1", "1", "1", "1"]}}, "explicit_paddings": {"list": {}}, "data_format": {"s": "TkhXQw=="}, "padding": {"s": "U0FNRQ=="}, "T": {"type": "DT_FLOAT"}, "strides": {"list": {"i": ["1", "1", "1", "1"]}}, "use_cudnn_on_gpu": {"b": true}}}, {"name": "ArithmeticOptimizer/AddOpsRewrite_Leaf_1_Add_12", "op": "AddN", "input": ["Conv2D_14", "Conv2D_13"], "attr": {"_grappler_ArithmeticOptimizer_AddOpsRewriteStage": {"b": true}, "T": {"type": "DT_FLOAT"}, "N": {"i": "2"}}}, {"name": "ArithmeticOptimizer/AddOpsRewrite_Add_12", "op": "AddV2", "input": ["ArithmeticOptimizer/AddOpsRewrite_Leaf_0_Add_12", "ArithmeticOptimizer/AddOpsRewrite_Leaf_1_Add_12"], "attr": {"_grappler_ArithmeticOptimizer_AddOpsRewriteStage": {"b": true}, "T": {"type": "DT_FLOAT"}}}, {"name": "tfl.add3", "op": "Relu", "input": ["ArithmeticOptimizer/AddOpsRewrite_Add_12"], "attr": {"T": {"type": "DT_FLOAT"}}}, {"name": "Conv2D_15", "op": "Conv2D", "input": ["tfl.add3", "Conv2D_15/filter"], "device": "/device:CPU:0", "attr": {"T": {"type": "DT_FLOAT"}, "dilations": {"list": {"i": ["1", "1", "1", "1"]}}, "padding": {"s": "U0FNRQ=="}, "data_format": {"s": "TkhXQw=="}, "use_cudnn_on_gpu": {"b": true}, "explicit_paddings": {"list": {}}, "strides": {"list": {"i": ["1", "1", "1", "1"]}}}}, {"name": "Add_13", "op": "AddV2", "input": ["Conv2D_15", "Add_13/y"], "attr": {"T": {"type": "DT_FLOAT"}}}, {"name": "tfl.conv_2d15", "op": "Relu", "input": ["Add_13"], "attr": {"T": {"type": "DT_FLOAT"}}}, {"name": "Conv2D_16", "op": "Conv2D", "input": ["tfl.conv_2d15", "Conv2D_16/filter"], "device": "/device:CPU:0", "attr": {"dilations": {"list": {"i": ["1", "1", "1", "1"]}}, "T": {"type": "DT_FLOAT"}, "strides": {"list": {"i": ["1", "1", "1", "1"]}}, "data_format": {"s": "TkhXQw=="}, "padding": {"s": "U0FNRQ=="}, "use_cudnn_on_gpu": {"b": true}, "explicit_paddings": {"list": {}}}}, {"name": "Add_14", "op": "AddV2", "input": ["Conv2D_16", "Add_14/y"], "attr": {"T": {"type": "DT_FLOAT"}}}, {"name": "tfl.conv_2d16", "op": "Relu", "input": ["Add_14"], "attr": {"T": {"type": "DT_FLOAT"}}}, {"name": "Conv2D_17", "op": "Conv2D", "input": ["tfl.conv_2d16", "Conv2D_17/filter"], "device": "/device:CPU:0", "attr": {"use_cudnn_on_gpu": {"b": true}, "padding": {"s": "U0FNRQ=="}, "explicit_paddings": {"list": {}}, "strides": {"list": {"i": ["1", "1", "1", "1"]}}, "dilations": {"list": {"i": ["1", "1", "1", "1"]}}, "T": {"type": "DT_FLOAT"}, "data_format": {"s": "TkhXQw=="}}}, {"name": "ArithmeticOptimizer/AddOpsRewrite_Leaf_1_Add_15", "op": "AddN", "input": ["tfl.add3", "Conv2D_17"], "attr": {"_grappler_ArithmeticOptimizer_AddOpsRewriteStage": {"b": true}, "T": {"type": "DT_FLOAT"}, "N": {"i": "2"}}}, {"name": "ArithmeticOptimizer/AddOpsRewrite_Add_15", "op": "AddV2", "input": ["tfl.conv_2d17/y", "ArithmeticOptimizer/AddOpsRewrite_Leaf_1_Add_15"], "attr": {"_grappler_ArithmeticOptimizer_AddOpsRewriteStage": {"b": true}, "T": {"type": "DT_FLOAT"}}}, {"name": "tfl.add4", "op": "Relu", "input": ["ArithmeticOptimizer/AddOpsRewrite_Add_15"], "attr": {"T": {"type": "DT_FLOAT"}}}, {"name": "Conv2D_18", "op": "Conv2D", "input": ["tfl.add4", "Conv2D_18/filter"], "device": "/device:CPU:0", "attr": {"dilations": {"list": {"i": ["1", "1", "1", "1"]}}, "use_cudnn_on_gpu": {"b": true}, "strides": {"list": {"i": ["1", "1", "1", "1"]}}, "padding": {"s": "U0FNRQ=="}, "explicit_paddings": {"list": {}}, "T": {"type": "DT_FLOAT"}, "data_format": {"s": "TkhXQw=="}}}, {"name": "Add_16", "op": "AddV2", "input": ["Conv2D_18", "Add_16/y"], "attr": {"T": {"type": "DT_FLOAT"}}}, {"name": "tfl.conv_2d18", "op": "Relu", "input": ["Add_16"], "attr": {"T": {"type": "DT_FLOAT"}}}, {"name": "Conv2D_19", "op": "Conv2D", "input": ["tfl.conv_2d18", "Conv2D_19/filter"], "device": "/device:CPU:0", "attr": {"explicit_paddings": {"list": {}}, "use_cudnn_on_gpu": {"b": true}, "T": {"type": "DT_FLOAT"}, "data_format": {"s": "TkhXQw=="}, "padding": {"s": "U0FNRQ=="}, "strides": {"list": {"i": ["1", "1", "1", "1"]}}, "dilations": {"list": {"i": ["1", "1", "1", "1"]}}}}, {"name": "Add_17", "op": "AddV2", "input": ["Conv2D_19", "Add_17/y"], "attr": {"T": {"type": "DT_FLOAT"}}}, {"name": "tfl.conv_2d19", "op": "Relu", "input": ["Add_17"], "attr": {"T": {"type": "DT_FLOAT"}}}, {"name": "Conv2D_20", "op": "Conv2D", "input": ["tfl.conv_2d19", "Conv2D_20/filter"], "device": "/device:CPU:0", "attr": {"padding": {"s": "U0FNRQ=="}, "T": {"type": "DT_FLOAT"}, "strides": {"list": {"i": ["1", "1", "1", "1"]}}, "dilations": {"list": {"i": ["1", "1", "1", "1"]}}, "explicit_paddings": {"list": {}}, "use_cudnn_on_gpu": {"b": true}, "data_format": {"s": "TkhXQw=="}}}, {"name": "ArithmeticOptimizer/AddOpsRewrite_Leaf_1_Add_18", "op": "AddN", "input": ["tfl.add4", "Conv2D_20"], "attr": {"_grappler_ArithmeticOptimizer_AddOpsRewriteStage": {"b": true}, "N": {"i": "2"}, "T": {"type": "DT_FLOAT"}}}, {"name": "ArithmeticOptimizer/AddOpsRewrite_Add_18", "op": "AddV2", "input": ["tfl.conv_2d20/y", "ArithmeticOptimizer/AddOpsRewrite_Leaf_1_Add_18"], "attr": {"T": {"type": "DT_FLOAT"}, "_grappler_ArithmeticOptimizer_AddOpsRewriteStage": {"b": true}}}, {"name": "tfl.add5", "op": "Relu", "input": ["ArithmeticOptimizer/AddOpsRewrite_Add_18"], "attr": {"T": {"type": "DT_FLOAT"}}}, {"name": "resnet_v1_50/block2/unit_4/bottleneck_v1/shortcut/MaxPool", "op": "MaxPool", "input": ["tfl.add5"], "attr": {"explicit_paddings": {"list": {}}, "data_format": {"s": "TkhXQw=="}, "T": {"type": "DT_FLOAT"}, "ksize": {"list": {"i": ["1", "1", "1", "1"]}}, "padding": {"s": "U0FNRQ=="}, "strides": {"list": {"i": ["1", "2", "2", "1"]}}}}, {"name": "Conv2D_21", "op": "Conv2D", "input": ["tfl.add5", "Conv2D_21/filter"], "device": "/device:CPU:0", "attr": {"T": {"type": "DT_FLOAT"}, "explicit_paddings": {"list": {}}, "padding": {"s": "U0FNRQ=="}, "use_cudnn_on_gpu": {"b": true}, "data_format": {"s": "TkhXQw=="}, "strides": {"list": {"i": ["1", "1", "1", "1"]}}, "dilations": {"list": {"i": ["1", "1", "1", "1"]}}}}, {"name": "Add_19", "op": "AddV2", "input": ["Conv2D_21", "Add_19/y"], "attr": {"T": {"type": "DT_FLOAT"}}}, {"name": "tfl.conv_2d21", "op": "Relu", "input": ["Add_19"], "attr": {"T": {"type": "DT_FLOAT"}}}, {"name": "resnet_v1_50/block2/unit_4/bottleneck_v1/Pad", "op": "Pad", "input": ["tfl.conv_2d21", "resnet_v1_50/block2/unit_4/bottleneck_v1/Pad/paddings"], "attr": {"T": {"type": "DT_FLOAT"}, "Tpaddings": {"type": "DT_INT32"}}}, {"name": "Conv2D_22", "op": "Conv2D", "input": ["resnet_v1_50/block2/unit_4/bottleneck_v1/Pad", "Conv2D_22/filter"], "device": "/device:CPU:0", "attr": {"dilations": {"list": {"i": ["1", "1", "1", "1"]}}, "strides": {"list": {"i": ["1", "2", "2", "1"]}}, "explicit_paddings": {"list": {}}, "T": {"type": "DT_FLOAT"}, "padding": {"s": "VkFMSUQ="}, "use_cudnn_on_gpu": {"b": true}, "data_format": {"s": "TkhXQw=="}}}, {"name": "Add_20", "op": "AddV2", "input": ["Conv2D_22", "Add_20/y"], "attr": {"T": {"type": "DT_FLOAT"}}}, {"name": "tfl.conv_2d22", "op": "Relu", "input": ["Add_20"], "attr": {"T": {"type": "DT_FLOAT"}}}, {"name": "Conv2D_23", "op": "Conv2D", "input": ["tfl.conv_2d22", "Conv2D_23/filter"], "device": "/device:CPU:0", "attr": {"use_cudnn_on_gpu": {"b": true}, "strides": {"list": {"i": ["1", "1", "1", "1"]}}, "padding": {"s": "U0FNRQ=="}, "data_format": {"s": "TkhXQw=="}, "T": {"type": "DT_FLOAT"}, "dilations": {"list": {"i": ["1", "1", "1", "1"]}}, "explicit_paddings": {"list": {}}}}, {"name": "tfl.conv_2d23", "op": "AddV2", "input": ["Conv2D_23", "tfl.conv_2d23/y"], "attr": {"T": {"type": "DT_FLOAT"}}}, {"name": "Add_21", "op": "AddV2", "input": ["resnet_v1_50/block2/unit_4/bottleneck_v1/shortcut/MaxPool", "tfl.conv_2d23"], "attr": {"T": {"type": "DT_FLOAT"}}}, {"name": "tfl.add6", "op": "Relu", "input": ["Add_21"], "attr": {"T": {"type": "DT_FLOAT"}}}, {"name": "Conv2D_27", "op": "Conv2D", "input": ["tfl.add6", "Conv2D_27/filter"], "device": "/device:CPU:0", "attr": {"dilations": {"list": {"i": ["1", "1", "1", "1"]}}, "use_cudnn_on_gpu": {"b": true}, "data_format": {"s": "TkhXQw=="}, "strides": {"list": {"i": ["1", "1", "1", "1"]}}, "T": {"type": "DT_FLOAT"}, "padding": {"s": "U0FNRQ=="}, "explicit_paddings": {"list": {}}}}, {"name": "Conv2D_24", "op": "Conv2D", "input": ["tfl.add6", "Conv2D_24/filter"], "device": "/device:CPU:0", "attr": {"use_cudnn_on_gpu": {"b": true}, "strides": {"list": {"i": ["1", "1", "1", "1"]}}, "data_format": {"s": "TkhXQw=="}, "explicit_paddings": {"list": {}}, "T": {"type": "DT_FLOAT"}, "dilations": {"list": {"i": ["1", "1", "1", "1"]}}, "padding": {"s": "U0FNRQ=="}}}, {"name": "Add_22", "op": "AddV2", "input": ["Conv2D_24", "Add_22/y"], "attr": {"T": {"type": "DT_FLOAT"}}}, {"name": "tfl.conv_2d24", "op": "Relu", "input": ["Add_22"], "attr": {"T": {"type": "DT_FLOAT"}}}, {"name": "Conv2D_25", "op": "Conv2D", "input": ["tfl.conv_2d24", "Conv2D_25/filter"], "device": "/device:CPU:0", "attr": {"strides": {"list": {"i": ["1", "1", "1", "1"]}}, "use_cudnn_on_gpu": {"b": true}, "explicit_paddings": {"list": {}}, "dilations": {"list": {"i": ["1", "1", "1", "1"]}}, "padding": {"s": "U0FNRQ=="}, "data_format": {"s": "TkhXQw=="}, "T": {"type": "DT_FLOAT"}}}, {"name": "Add_23", "op": "AddV2", "input": ["Conv2D_25", "Add_23/y"], "attr": {"T": {"type": "DT_FLOAT"}}}, {"name": "tfl.conv_2d25", "op": "Relu", "input": ["Add_23"], "attr": {"T": {"type": "DT_FLOAT"}}}, {"name": "Conv2D_26", "op": "Conv2D", "input": ["tfl.conv_2d25", "Conv2D_26/filter"], "device": "/device:CPU:0", "attr": {"explicit_paddings": {"list": {}}, "data_format": {"s": "TkhXQw=="}, "dilations": {"list": {"i": ["1", "1", "1", "1"]}}, "use_cudnn_on_gpu": {"b": true}, "padding": {"s": "U0FNRQ=="}, "T": {"type": "DT_FLOAT"}, "strides": {"list": {"i": ["1", "1", "1", "1"]}}}}, {"name": "ArithmeticOptimizer/AddOpsRewrite_Leaf_1_Add_24", "op": "AddN", "input": ["Conv2D_27", "Conv2D_26"], "attr": {"N": {"i": "2"}, "T": {"type": "DT_FLOAT"}, "_grappler_ArithmeticOptimizer_AddOpsRewriteStage": {"b": true}}}, {"name": "ArithmeticOptimizer/AddOpsRewrite_Add_24", "op": "AddV2", "input": ["ArithmeticOptimizer/AddOpsRewrite_Leaf_0_Add_24", "ArithmeticOptimizer/AddOpsRewrite_Leaf_1_Add_24"], "attr": {"_grappler_ArithmeticOptimizer_AddOpsRewriteStage": {"b": true}, "T": {"type": "DT_FLOAT"}}}, {"name": "tfl.add7", "op": "Relu", "input": ["ArithmeticOptimizer/AddOpsRewrite_Add_24"], "attr": {"T": {"type": "DT_FLOAT"}}}, {"name": "Conv2D_28", "op": "Conv2D", "input": ["tfl.add7", "Conv2D_28/filter"], "device": "/device:CPU:0", "attr": {"explicit_paddings": {"list": {}}, "use_cudnn_on_gpu": {"b": true}, "padding": {"s": "U0FNRQ=="}, "dilations": {"list": {"i": ["1", "1", "1", "1"]}}, "strides": {"list": {"i": ["1", "1", "1", "1"]}}, "data_format": {"s": "TkhXQw=="}, "T": {"type": "DT_FLOAT"}}}, {"name": "Add_25", "op": "AddV2", "input": ["Conv2D_28", "Add_25/y"], "attr": {"T": {"type": "DT_FLOAT"}}}, {"name": "tfl.conv_2d28", "op": "Relu", "input": ["Add_25"], "attr": {"T": {"type": "DT_FLOAT"}}}, {"name": "Conv2D_29", "op": "Conv2D", "input": ["tfl.conv_2d28", "Conv2D_29/filter"], "device": "/device:CPU:0", "attr": {"data_format": {"s": "TkhXQw=="}, "strides": {"list": {"i": ["1", "1", "1", "1"]}}, "padding": {"s": "U0FNRQ=="}, "explicit_paddings": {"list": {}}, "use_cudnn_on_gpu": {"b": true}, "T": {"type": "DT_FLOAT"}, "dilations": {"list": {"i": ["1", "1", "1", "1"]}}}}, {"name": "Add_26", "op": "AddV2", "input": ["Conv2D_29", "Add_26/y"], "attr": {"T": {"type": "DT_FLOAT"}}}, {"name": "tfl.conv_2d29", "op": "Relu", "input": ["Add_26"], "attr": {"T": {"type": "DT_FLOAT"}}}, {"name": "Conv2D_30", "op": "Conv2D", "input": ["tfl.conv_2d29", "Conv2D_30/filter"], "device": "/device:CPU:0", "attr": {"padding": {"s": "U0FNRQ=="}, "dilations": {"list": {"i": ["1", "1", "1", "1"]}}, "strides": {"list": {"i": ["1", "1", "1", "1"]}}, "explicit_paddings": {"list": {}}, "data_format": {"s": "TkhXQw=="}, "use_cudnn_on_gpu": {"b": true}, "T": {"type": "DT_FLOAT"}}}, {"name": "ArithmeticOptimizer/AddOpsRewrite_Leaf_1_Add_27", "op": "AddN", "input": ["tfl.add7", "Conv2D_30"], "attr": {"_grappler_ArithmeticOptimizer_AddOpsRewriteStage": {"b": true}, "T": {"type": "DT_FLOAT"}, "N": {"i": "2"}}}, {"name": "ArithmeticOptimizer/AddOpsRewrite_Add_27", "op": "AddV2", "input": ["tfl.conv_2d30/y", "ArithmeticOptimizer/AddOpsRewrite_Leaf_1_Add_27"], "attr": {"T": {"type": "DT_FLOAT"}, "_grappler_ArithmeticOptimizer_AddOpsRewriteStage": {"b": true}}}, {"name": "tfl.add8", "op": "Relu", "input": ["ArithmeticOptimizer/AddOpsRewrite_Add_27"], "attr": {"T": {"type": "DT_FLOAT"}}}, {"name": "Conv2D_31", "op": "Conv2D", "input": ["tfl.add8", "Conv2D_31/filter"], "device": "/device:CPU:0", "attr": {"T": {"type": "DT_FLOAT"}, "strides": {"list": {"i": ["1", "1", "1", "1"]}}, "explicit_paddings": {"list": {}}, "use_cudnn_on_gpu": {"b": true}, "dilations": {"list": {"i": ["1", "1", "1", "1"]}}, "data_format": {"s": "TkhXQw=="}, "padding": {"s": "U0FNRQ=="}}}, {"name": "Add_28", "op": "AddV2", "input": ["Conv2D_31", "Add_28/y"], "attr": {"T": {"type": "DT_FLOAT"}}}, {"name": "tfl.conv_2d31", "op": "Relu", "input": ["Add_28"], "attr": {"T": {"type": "DT_FLOAT"}}}, {"name": "Conv2D_32", "op": "Conv2D", "input": ["tfl.conv_2d31", "Conv2D_32/filter"], "device": "/device:CPU:0", "attr": {"explicit_paddings": {"list": {}}, "data_format": {"s": "TkhXQw=="}, "use_cudnn_on_gpu": {"b": true}, "padding": {"s": "U0FNRQ=="}, "strides": {"list": {"i": ["1", "1", "1", "1"]}}, "T": {"type": "DT_FLOAT"}, "dilations": {"list": {"i": ["1", "1", "1", "1"]}}}}, {"name": "Add_29", "op": "AddV2", "input": ["Conv2D_32", "Add_29/y"], "attr": {"T": {"type": "DT_FLOAT"}}}, {"name": "tfl.conv_2d32", "op": "Relu", "input": ["Add_29"], "attr": {"T": {"type": "DT_FLOAT"}}}, {"name": "Conv2D_33", "op": "Conv2D", "input": ["tfl.conv_2d32", "Conv2D_33/filter"], "device": "/device:CPU:0", "attr": {"strides": {"list": {"i": ["1", "1", "1", "1"]}}, "explicit_paddings": {"list": {}}, "dilations": {"list": {"i": ["1", "1", "1", "1"]}}, "T": {"type": "DT_FLOAT"}, "use_cudnn_on_gpu": {"b": true}, "padding": {"s": "U0FNRQ=="}, "data_format": {"s": "TkhXQw=="}}}, {"name": "ArithmeticOptimizer/AddOpsRewrite_Leaf_1_Add_30", "op": "AddN", "input": ["tfl.add8", "Conv2D_33"], "attr": {"N": {"i": "2"}, "T": {"type": "DT_FLOAT"}, "_grappler_ArithmeticOptimizer_AddOpsRewriteStage": {"b": true}}}, {"name": "ArithmeticOptimizer/AddOpsRewrite_Add_30", "op": "AddV2", "input": ["tfl.conv_2d33/y", "ArithmeticOptimizer/AddOpsRewrite_Leaf_1_Add_30"], "attr": {"T": {"type": "DT_FLOAT"}, "_grappler_ArithmeticOptimizer_AddOpsRewriteStage": {"b": true}}}, {"name": "tfl.add9", "op": "Relu", "input": ["ArithmeticOptimizer/AddOpsRewrite_Add_30"], "attr": {"T": {"type": "DT_FLOAT"}}}, {"name": "Conv2D_34", "op": "Conv2D", "input": ["tfl.add9", "Conv2D_34/filter"], "device": "/device:CPU:0", "attr": {"data_format": {"s": "TkhXQw=="}, "strides": {"list": {"i": ["1", "1", "1", "1"]}}, "T": {"type": "DT_FLOAT"}, "padding": {"s": "U0FNRQ=="}, "explicit_paddings": {"list": {}}, "use_cudnn_on_gpu": {"b": true}, "dilations": {"list": {"i": ["1", "1", "1", "1"]}}}}, {"name": "Add_31", "op": "AddV2", "input": ["Conv2D_34", "Add_31/y"], "attr": {"T": {"type": "DT_FLOAT"}}}, {"name": "tfl.conv_2d34", "op": "Relu", "input": ["Add_31"], "attr": {"T": {"type": "DT_FLOAT"}}}, {"name": "Conv2D_35", "op": "Conv2D", "input": ["tfl.conv_2d34", "Conv2D_35/filter"], "device": "/device:CPU:0", "attr": {"padding": {"s": "U0FNRQ=="}, "data_format": {"s": "TkhXQw=="}, "dilations": {"list": {"i": ["1", "1", "1", "1"]}}, "use_cudnn_on_gpu": {"b": true}, "T": {"type": "DT_FLOAT"}, "explicit_paddings": {"list": {}}, "strides": {"list": {"i": ["1", "1", "1", "1"]}}}}, {"name": "Add_32", "op": "AddV2", "input": ["Conv2D_35", "Add_32/y"], "attr": {"T": {"type": "DT_FLOAT"}}}, {"name": "tfl.conv_2d35", "op": "Relu", "input": ["Add_32"], "attr": {"T": {"type": "DT_FLOAT"}}}, {"name": "Conv2D_36", "op": "Conv2D", "input": ["tfl.conv_2d35", "Conv2D_36/filter"], "device": "/device:CPU:0", "attr": {"use_cudnn_on_gpu": {"b": true}, "explicit_paddings": {"list": {}}, "dilations": {"list": {"i": ["1", "1", "1", "1"]}}, "data_format": {"s": "TkhXQw=="}, "strides": {"list": {"i": ["1", "1", "1", "1"]}}, "padding": {"s": "U0FNRQ=="}, "T": {"type": "DT_FLOAT"}}}, {"name": "ArithmeticOptimizer/AddOpsRewrite_Leaf_1_Add_33", "op": "AddN", "input": ["tfl.add9", "Conv2D_36"], "attr": {"_grappler_ArithmeticOptimizer_AddOpsRewriteStage": {"b": true}, "N": {"i": "2"}, "T": {"type": "DT_FLOAT"}}}, {"name": "ArithmeticOptimizer/AddOpsRewrite_Add_33", "op": "AddV2", "input": ["tfl.conv_2d36/y", "ArithmeticOptimizer/AddOpsRewrite_Leaf_1_Add_33"], "attr": {"_grappler_ArithmeticOptimizer_AddOpsRewriteStage": {"b": true}, "T": {"type": "DT_FLOAT"}}}, {"name": "tfl.add10", "op": "Relu", "input": ["ArithmeticOptimizer/AddOpsRewrite_Add_33"], "attr": {"T": {"type": "DT_FLOAT"}}}, {"name": "Conv2D_37", "op": "Conv2D", "input": ["tfl.add10", "Conv2D_37/filter"], "device": "/device:CPU:0", "attr": {"T": {"type": "DT_FLOAT"}, "dilations": {"list": {"i": ["1", "1", "1", "1"]}}, "data_format": {"s": "TkhXQw=="}, "use_cudnn_on_gpu": {"b": true}, "padding": {"s": "U0FNRQ=="}, "explicit_paddings": {"list": {}}, "strides": {"list": {"i": ["1", "1", "1", "1"]}}}}, {"name": "Add_34", "op": "AddV2", "input": ["Conv2D_37", "Add_34/y"], "attr": {"T": {"type": "DT_FLOAT"}}}, {"name": "tfl.conv_2d37", "op": "Relu", "input": ["Add_34"], "attr": {"T": {"type": "DT_FLOAT"}}}, {"name": "Conv2D_38", "op": "Conv2D", "input": ["tfl.conv_2d37", "Conv2D_38/filter"], "device": "/device:CPU:0", "attr": {"data_format": {"s": "TkhXQw=="}, "dilations": {"list": {"i": ["1", "1", "1", "1"]}}, "T": {"type": "DT_FLOAT"}, "strides": {"list": {"i": ["1", "1", "1", "1"]}}, "explicit_paddings": {"list": {}}, "use_cudnn_on_gpu": {"b": true}, "padding": {"s": "U0FNRQ=="}}}, {"name": "Add_35", "op": "AddV2", "input": ["Conv2D_38", "Add_35/y"], "attr": {"T": {"type": "DT_FLOAT"}}}, {"name": "tfl.conv_2d38", "op": "Relu", "input": ["Add_35"], "attr": {"T": {"type": "DT_FLOAT"}}}, {"name": "Conv2D_39", "op": "Conv2D", "input": ["tfl.conv_2d38", "Conv2D_39/filter"], "device": "/device:CPU:0", "attr": {"use_cudnn_on_gpu": {"b": true}, "padding": {"s": "U0FNRQ=="}, "dilations": {"list": {"i": ["1", "1", "1", "1"]}}, "explicit_paddings": {"list": {}}, "T": {"type": "DT_FLOAT"}, "strides": {"list": {"i": ["1", "1", "1", "1"]}}, "data_format": {"s": "TkhXQw=="}}}, {"name": "ArithmeticOptimizer/AddOpsRewrite_Leaf_1_Add_36", "op": "AddN", "input": ["tfl.add10", "Conv2D_39"], "attr": {"T": {"type": "DT_FLOAT"}, "N": {"i": "2"}, "_grappler_ArithmeticOptimizer_AddOpsRewriteStage": {"b": true}}}, {"name": "ArithmeticOptimizer/AddOpsRewrite_Add_36", "op": "AddV2", "input": ["tfl.conv_2d39/y", "ArithmeticOptimizer/AddOpsRewrite_Leaf_1_Add_36"], "attr": {"_grappler_ArithmeticOptimizer_AddOpsRewriteStage": {"b": true}, "T": {"type": "DT_FLOAT"}}}, {"name": "tfl.add11", "op": "Relu", "input": ["ArithmeticOptimizer/AddOpsRewrite_Add_36"], "attr": {"T": {"type": "DT_FLOAT"}}}, {"name": "resnet_v1_50/block3/unit_6/bottleneck_v1/shortcut/MaxPool", "op": "MaxPool", "input": ["tfl.add11"], "attr": {"explicit_paddings": {"list": {}}, "data_format": {"s": "TkhXQw=="}, "ksize": {"list": {"i": ["1", "1", "1", "1"]}}, "T": {"type": "DT_FLOAT"}, "strides": {"list": {"i": ["1", "2", "2", "1"]}}, "padding": {"s": "U0FNRQ=="}}}, {"name": "Conv2D_40", "op": "Conv2D", "input": ["tfl.add11", "Conv2D_40/filter"], "device": "/device:CPU:0", "attr": {"padding": {"s": "U0FNRQ=="}, "data_format": {"s": "TkhXQw=="}, "strides": {"list": {"i": ["1", "1", "1", "1"]}}, "dilations": {"list": {"i": ["1", "1", "1", "1"]}}, "explicit_paddings": {"list": {}}, "use_cudnn_on_gpu": {"b": true}, "T": {"type": "DT_FLOAT"}}}, {"name": "Add_37", "op": "AddV2", "input": ["Conv2D_40", "Add_37/y"], "attr": {"T": {"type": "DT_FLOAT"}}}, {"name": "tfl.conv_2d40", "op": "Relu", "input": ["Add_37"], "attr": {"T": {"type": "DT_FLOAT"}}}, {"name": "resnet_v1_50/block3/unit_6/bottleneck_v1/Pad", "op": "Pad", "input": ["tfl.conv_2d40", "resnet_v1_50/block3/unit_6/bottleneck_v1/Pad/paddings"], "attr": {"Tpaddings": {"type": "DT_INT32"}, "T": {"type": "DT_FLOAT"}}}, {"name": "Conv2D_41", "op": "Conv2D", "input": ["resnet_v1_50/block3/unit_6/bottleneck_v1/Pad", "Conv2D_41/filter"], "device": "/device:CPU:0", "attr": {"strides": {"list": {"i": ["1", "2", "2", "1"]}}, "data_format": {"s": "TkhXQw=="}, "explicit_paddings": {"list": {}}, "use_cudnn_on_gpu": {"b": true}, "dilations": {"list": {"i": ["1", "1", "1", "1"]}}, "padding": {"s": "VkFMSUQ="}, "T": {"type": "DT_FLOAT"}}}, {"name": "Add_38", "op": "AddV2", "input": ["Conv2D_41", "Add_38/y"], "attr": {"T": {"type": "DT_FLOAT"}}}, {"name": "tfl.conv_2d41", "op": "Relu", "input": ["Add_38"], "attr": {"T": {"type": "DT_FLOAT"}}}, {"name": "Conv2D_42", "op": "Conv2D", "input": ["tfl.conv_2d41", "Conv2D_42/filter"], "device": "/device:CPU:0", "attr": {"data_format": {"s": "TkhXQw=="}, "dilations": {"list": {"i": ["1", "1", "1", "1"]}}, "T": {"type": "DT_FLOAT"}, "padding": {"s": "U0FNRQ=="}, "use_cudnn_on_gpu": {"b": true}, "strides": {"list": {"i": ["1", "1", "1", "1"]}}, "explicit_paddings": {"list": {}}}}, {"name": "tfl.conv_2d42", "op": "AddV2", "input": ["Conv2D_42", "tfl.conv_2d42/y"], "attr": {"T": {"type": "DT_FLOAT"}}}, {"name": "Add_39", "op": "AddV2", "input": ["resnet_v1_50/block3/unit_6/bottleneck_v1/shortcut/MaxPool", "tfl.conv_2d42"], "attr": {"T": {"type": "DT_FLOAT"}}}, {"name": "tfl.add12", "op": "Relu", "input": ["Add_39"], "attr": {"T": {"type": "DT_FLOAT"}}}, {"name": "Conv2D_46", "op": "Conv2D", "input": ["tfl.add12", "Conv2D_46/filter"], "device": "/device:CPU:0", "attr": {"padding": {"s": "U0FNRQ=="}, "dilations": {"list": {"i": ["1", "1", "1", "1"]}}, "strides": {"list": {"i": ["1", "1", "1", "1"]}}, "T": {"type": "DT_FLOAT"}, "data_format": {"s": "TkhXQw=="}, "explicit_paddings": {"list": {}}, "use_cudnn_on_gpu": {"b": true}}}, {"name": "Conv2D_43", "op": "Conv2D", "input": ["tfl.add12", "Conv2D_43/filter"], "device": "/device:CPU:0", "attr": {"explicit_paddings": {"list": {}}, "use_cudnn_on_gpu": {"b": true}, "dilations": {"list": {"i": ["1", "1", "1", "1"]}}, "strides": {"list": {"i": ["1", "1", "1", "1"]}}, "T": {"type": "DT_FLOAT"}, "padding": {"s": "U0FNRQ=="}, "data_format": {"s": "TkhXQw=="}}}, {"name": "Add_40", "op": "AddV2", "input": ["Conv2D_43", "Add_40/y"], "attr": {"T": {"type": "DT_FLOAT"}}}, {"name": "tfl.conv_2d43", "op": "Relu", "input": ["Add_40"], "attr": {"T": {"type": "DT_FLOAT"}}}, {"name": "Conv2D_44", "op": "Conv2D", "input": ["tfl.conv_2d43", "Conv2D_44/filter"], "device": "/device:CPU:0", "attr": {"explicit_paddings": {"list": {}}, "T": {"type": "DT_FLOAT"}, "strides": {"list": {"i": ["1", "1", "1", "1"]}}, "dilations": {"list": {"i": ["1", "1", "1", "1"]}}, "use_cudnn_on_gpu": {"b": true}, "data_format": {"s": "TkhXQw=="}, "padding": {"s": "U0FNRQ=="}}}, {"name": "Add_41", "op": "AddV2", "input": ["Conv2D_44", "Add_41/y"], "attr": {"T": {"type": "DT_FLOAT"}}}, {"name": "tfl.conv_2d44", "op": "Relu", "input": ["Add_41"], "attr": {"T": {"type": "DT_FLOAT"}}}, {"name": "Conv2D_45", "op": "Conv2D", "input": ["tfl.conv_2d44", "Conv2D_45/filter"], "device": "/device:CPU:0", "attr": {"T": {"type": "DT_FLOAT"}, "padding": {"s": "U0FNRQ=="}, "data_format": {"s": "TkhXQw=="}, "strides": {"list": {"i": ["1", "1", "1", "1"]}}, "explicit_paddings": {"list": {}}, "dilations": {"list": {"i": ["1", "1", "1", "1"]}}, "use_cudnn_on_gpu": {"b": true}}}, {"name": "ArithmeticOptimizer/AddOpsRewrite_Leaf_1_Add_42", "op": "AddN", "input": ["Conv2D_46", "Conv2D_45"], "attr": {"N": {"i": "2"}, "_grappler_ArithmeticOptimizer_AddOpsRewriteStage": {"b": true}, "T": {"type": "DT_FLOAT"}}}, {"name": "ArithmeticOptimizer/AddOpsRewrite_Add_42", "op": "AddV2", "input": ["ArithmeticOptimizer/AddOpsRewrite_Leaf_0_Add_42", "ArithmeticOptimizer/AddOpsRewrite_Leaf_1_Add_42"], "attr": {"_grappler_ArithmeticOptimizer_AddOpsRewriteStage": {"b": true}, "T": {"type": "DT_FLOAT"}}}, {"name": "tfl.add13", "op": "Relu", "input": ["ArithmeticOptimizer/AddOpsRewrite_Add_42"], "attr": {"T": {"type": "DT_FLOAT"}}}, {"name": "Conv2D_47", "op": "Conv2D", "input": ["tfl.add13", "Conv2D_47/filter"], "device": "/device:CPU:0", "attr": {"use_cudnn_on_gpu": {"b": true}, "padding": {"s": "U0FNRQ=="}, "T": {"type": "DT_FLOAT"}, "data_format": {"s": "TkhXQw=="}, "dilations": {"list": {"i": ["1", "1", "1", "1"]}}, "strides": {"list": {"i": ["1", "1", "1", "1"]}}, "explicit_paddings": {"list": {}}}}, {"name": "Add_43", "op": "AddV2", "input": ["Conv2D_47", "Add_43/y"], "attr": {"T": {"type": "DT_FLOAT"}}}, {"name": "tfl.conv_2d47", "op": "Relu", "input": ["Add_43"], "attr": {"T": {"type": "DT_FLOAT"}}}, {"name": "Conv2D_48", "op": "Conv2D", "input": ["tfl.conv_2d47", "Conv2D_48/filter"], "device": "/device:CPU:0", "attr": {"explicit_paddings": {"list": {}}, "padding": {"s": "U0FNRQ=="}, "dilations": {"list": {"i": ["1", "1", "1", "1"]}}, "strides": {"list": {"i": ["1", "1", "1", "1"]}}, "use_cudnn_on_gpu": {"b": true}, "T": {"type": "DT_FLOAT"}, "data_format": {"s": "TkhXQw=="}}}, {"name": "Add_44", "op": "AddV2", "input": ["Conv2D_48", "Add_44/y"], "attr": {"T": {"type": "DT_FLOAT"}}}, {"name": "tfl.conv_2d48", "op": "Relu", "input": ["Add_44"], "attr": {"T": {"type": "DT_FLOAT"}}}, {"name": "Conv2D_49", "op": "Conv2D", "input": ["tfl.conv_2d48", "Conv2D_49/filter"], "device": "/device:CPU:0", "attr": {"padding": {"s": "U0FNRQ=="}, "strides": {"list": {"i": ["1", "1", "1", "1"]}}, "explicit_paddings": {"list": {}}, "T": {"type": "DT_FLOAT"}, "use_cudnn_on_gpu": {"b": true}, "dilations": {"list": {"i": ["1", "1", "1", "1"]}}, "data_format": {"s": "TkhXQw=="}}}, {"name": "ArithmeticOptimizer/AddOpsRewrite_Leaf_1_Add_45", "op": "AddN", "input": ["tfl.add13", "Conv2D_49"], "attr": {"T": {"type": "DT_FLOAT"}, "N": {"i": "2"}, "_grappler_ArithmeticOptimizer_AddOpsRewriteStage": {"b": true}}}, {"name": "ArithmeticOptimizer/AddOpsRewrite_Add_45", "op": "AddV2", "input": ["tfl.conv_2d49/y", "ArithmeticOptimizer/AddOpsRewrite_Leaf_1_Add_45"], "attr": {"_grappler_ArithmeticOptimizer_AddOpsRewriteStage": {"b": true}, "T": {"type": "DT_FLOAT"}}}, {"name": "tfl.add14", "op": "Relu", "input": ["ArithmeticOptimizer/AddOpsRewrite_Add_45"], "attr": {"T": {"type": "DT_FLOAT"}}}, {"name": "Conv2D_50", "op": "Conv2D", "input": ["tfl.add14", "Conv2D_50/filter"], "device": "/device:CPU:0", "attr": {"explicit_paddings": {"list": {}}, "data_format": {"s": "TkhXQw=="}, "dilations": {"list": {"i": ["1", "1", "1", "1"]}}, "strides": {"list": {"i": ["1", "1", "1", "1"]}}, "use_cudnn_on_gpu": {"b": true}, "T": {"type": "DT_FLOAT"}, "padding": {"s": "U0FNRQ=="}}}, {"name": "Add_46", "op": "AddV2", "input": ["Conv2D_50", "Add_46/y"], "attr": {"T": {"type": "DT_FLOAT"}}}, {"name": "tfl.conv_2d50", "op": "Relu", "input": ["Add_46"], "attr": {"T": {"type": "DT_FLOAT"}}}, {"name": "Conv2D_51", "op": "Conv2D", "input": ["tfl.conv_2d50", "Conv2D_51/filter"], "device": "/device:CPU:0", "attr": {"use_cudnn_on_gpu": {"b": true}, "T": {"type": "DT_FLOAT"}, "data_format": {"s": "TkhXQw=="}, "dilations": {"list": {"i": ["1", "1", "1", "1"]}}, "padding": {"s": "U0FNRQ=="}, "strides": {"list": {"i": ["1", "1", "1", "1"]}}, "explicit_paddings": {"list": {}}}}, {"name": "Add_47", "op": "AddV2", "input": ["Conv2D_51", "Add_47/y"], "attr": {"T": {"type": "DT_FLOAT"}}}, {"name": "tfl.conv_2d51", "op": "Relu", "input": ["Add_47"], "attr": {"T": {"type": "DT_FLOAT"}}}, {"name": "Conv2D_52", "op": "Conv2D", "input": ["tfl.conv_2d51", "Conv2D_52/filter"], "device": "/device:CPU:0", "attr": {"use_cudnn_on_gpu": {"b": true}, "dilations": {"list": {"i": ["1", "1", "1", "1"]}}, "data_format": {"s": "TkhXQw=="}, "explicit_paddings": {"list": {}}, "padding": {"s": "U0FNRQ=="}, "T": {"type": "DT_FLOAT"}, "strides": {"list": {"i": ["1", "1", "1", "1"]}}}}, {"name": "ArithmeticOptimizer/AddOpsRewrite_Leaf_1_Add_48", "op": "AddN", "input": ["tfl.add14", "Conv2D_52"], "attr": {"T": {"type": "DT_FLOAT"}, "_grappler_ArithmeticOptimizer_AddOpsRewriteStage": {"b": true}, "N": {"i": "2"}}}, {"name": "ArithmeticOptimizer/AddOpsRewrite_Add_48", "op": "AddV2", "input": ["tfl.conv_2d52/y", "ArithmeticOptimizer/AddOpsRewrite_Leaf_1_Add_48"], "attr": {"_grappler_ArithmeticOptimizer_AddOpsRewriteStage": {"b": true}, "T": {"type": "DT_FLOAT"}}}, {"name": "tfl.add15", "op": "Relu", "input": ["ArithmeticOptimizer/AddOpsRewrite_Add_48"], "attr": {"T": {"type": "DT_FLOAT"}}}, {"name": "feature_fusion/ResizeBilinear_lambda/resize/ResizeBilinear", "op": "ResizeBilinear", "input": ["tfl.add15", "feature_fusion/ResizeBilinear_lambda/resize/size"], "attr": {"half_pixel_centers": {"b": true}, "align_corners": {"b": false}, "T": {"type": "DT_FLOAT"}}}, {"name": "feature_fusion/concat", "op": "ConcatV2", "input": ["feature_fusion/ResizeBilinear_lambda/resize/ResizeBilinear", "tfl.add6", "feature_fusion/concat/axis"], "attr": {"T": {"type": "DT_FLOAT"}, "N": {"i": "2"}, "Tidx": {"type": "DT_INT32"}}}, {"name": "Conv2D_53", "op": "Conv2D", "input": ["feature_fusion/concat", "Conv2D_53/filter"], "device": "/device:CPU:0", "attr": {"use_cudnn_on_gpu": {"b": true}, "dilations": {"list": {"i": ["1", "1", "1", "1"]}}, "padding": {"s": "U0FNRQ=="}, "T": {"type": "DT_FLOAT"}, "strides": {"list": {"i": ["1", "1", "1", "1"]}}, "data_format": {"s": "TkhXQw=="}, "explicit_paddings": {"list": {}}}}, {"name": "Add_49", "op": "AddV2", "input": ["Conv2D_53", "Add_49/y"], "attr": {"T": {"type": "DT_FLOAT"}}}, {"name": "tfl.conv_2d53", "op": "Relu", "input": ["Add_49"], "attr": {"T": {"type": "DT_FLOAT"}}}, {"name": "Conv2D_54", "op": "Conv2D", "input": ["tfl.conv_2d53", "Conv2D_54/filter"], "device": "/device:CPU:0", "attr": {"padding": {"s": "U0FNRQ=="}, "explicit_paddings": {"list": {}}, "strides": {"list": {"i": ["1", "1", "1", "1"]}}, "use_cudnn_on_gpu": {"b": true}, "T": {"type": "DT_FLOAT"}, "dilations": {"list": {"i": ["1", "1", "1", "1"]}}, "data_format": {"s": "TkhXQw=="}}}, {"name": "Add_50", "op": "AddV2", "input": ["Conv2D_54", "Add_50/y"], "attr": {"T": {"type": "DT_FLOAT"}}}, {"name": "tfl.conv_2d54", "op": "Relu", "input": ["Add_50"], "attr": {"T": {"type": "DT_FLOAT"}}}, {"name": "feature_fusion/ResizeBilinear_1_lambda/resize/ResizeBilinear", "op": "ResizeBilinear", "input": ["tfl.conv_2d54", "feature_fusion/ResizeBilinear_1_lambda/resize/size"], "attr": {"align_corners": {"b": false}, "half_pixel_centers": {"b": true}, "T": {"type": "DT_FLOAT"}}}, {"name": "feature_fusion/concat_1", "op": "ConcatV2", "input": ["feature_fusion/ResizeBilinear_1_lambda/resize/ResizeBilinear", "tfl.add2", "feature_fusion/concat_1/axis"], "attr": {"N": {"i": "2"}, "T": {"type": "DT_FLOAT"}, "Tidx": {"type": "DT_INT32"}}}, {"name": "Conv2D_55", "op": "Conv2D", "input": ["feature_fusion/concat_1", "Conv2D_55/filter"], "device": "/device:CPU:0", "attr": {"data_format": {"s": "TkhXQw=="}, "use_cudnn_on_gpu": {"b": true}, "padding": {"s": "U0FNRQ=="}, "dilations": {"list": {"i": ["1", "1", "1", "1"]}}, "strides": {"list": {"i": ["1", "1", "1", "1"]}}, "explicit_paddings": {"list": {}}, "T": {"type": "DT_FLOAT"}}}, {"name": "Add_51", "op": "AddV2", "input": ["Conv2D_55", "Add_51/y"], "attr": {"T": {"type": "DT_FLOAT"}}}, {"name": "tfl.conv_2d55", "op": "Relu", "input": ["Add_51"], "attr": {"T": {"type": "DT_FLOAT"}}}, {"name": "Conv2D_56", "op": "Conv2D", "input": ["tfl.conv_2d55", "Conv2D_56/filter"], "device": "/device:CPU:0", "attr": {"use_cudnn_on_gpu": {"b": true}, "dilations": {"list": {"i": ["1", "1", "1", "1"]}}, "strides": {"list": {"i": ["1", "1", "1", "1"]}}, "explicit_paddings": {"list": {}}, "padding": {"s": "U0FNRQ=="}, "data_format": {"s": "TkhXQw=="}, "T": {"type": "DT_FLOAT"}}}, {"name": "Add_52", "op": "AddV2", "input": ["Conv2D_56", "Add_52/y"], "attr": {"T": {"type": "DT_FLOAT"}}}, {"name": "tfl.conv_2d56", "op": "Relu", "input": ["Add_52"], "attr": {"T": {"type": "DT_FLOAT"}}}, {"name": "feature_fusion/ResizeBilinear_2_lambda/resize/ResizeBilinear", "op": "ResizeBilinear", "input": ["tfl.conv_2d56", "feature_fusion/ResizeBilinear_2_lambda/resize/size"], "attr": {"T": {"type": "DT_FLOAT"}, "align_corners": {"b": false}, "half_pixel_centers": {"b": true}}}, {"name": "feature_fusion/concat_2", "op": "ConcatV2", "input": ["feature_fusion/ResizeBilinear_2_lambda/resize/ResizeBilinear", "tfl.conv_2d", "feature_fusion/concat_2/axis"], "attr": {"T": {"type": "DT_FLOAT"}, "Tidx": {"type": "DT_INT32"}, "N": {"i": "2"}}}, {"name": "Conv2D_57", "op": "Conv2D", "input": ["feature_fusion/concat_2", "Conv2D_57/filter"], "device": "/device:CPU:0", "attr": {"dilations": {"list": {"i": ["1", "1", "1", "1"]}}, "data_format": {"s": "TkhXQw=="}, "strides": {"list": {"i": ["1", "1", "1", "1"]}}, "T": {"type": "DT_FLOAT"}, "use_cudnn_on_gpu": {"b": true}, "explicit_paddings": {"list": {}}, "padding": {"s": "U0FNRQ=="}}}, {"name": "Add_53", "op": "AddV2", "input": ["Conv2D_57", "Add_53/y"], "attr": {"T": {"type": "DT_FLOAT"}}}, {"name": "tfl.conv_2d57", "op": "Relu", "input": ["Add_53"], "attr": {"T": {"type": "DT_FLOAT"}}}, {"name": "Conv2D_58", "op": "Conv2D", "input": ["tfl.conv_2d57", "Conv2D_58/filter"], "device": "/device:CPU:0", "attr": {"use_cudnn_on_gpu": {"b": true}, "data_format": {"s": "TkhXQw=="}, "dilations": {"list": {"i": ["1", "1", "1", "1"]}}, "strides": {"list": {"i": ["1", "1", "1", "1"]}}, "padding": {"s": "U0FNRQ=="}, "explicit_paddings": {"list": {}}, "T": {"type": "DT_FLOAT"}}}, {"name": "Add_54", "op": "AddV2", "input": ["Conv2D_58", "Add_54/y"], "attr": {"T": {"type": "DT_FLOAT"}}}, {"name": "tfl.conv_2d58", "op": "Relu", "input": ["Add_54"], "attr": {"T": {"type": "DT_FLOAT"}}}, {"name": "Conv2D_59", "op": "Conv2D", "input": ["tfl.conv_2d58", "Conv2D_59/filter"], "device": "/device:CPU:0", "attr": {"padding": {"s": "U0FNRQ=="}, "strides": {"list": {"i": ["1", "1", "1", "1"]}}, "dilations": {"list": {"i": ["1", "1", "1", "1"]}}, "use_cudnn_on_gpu": {"b": true}, "T": {"type": "DT_FLOAT"}, "data_format": {"s": "TkhXQw=="}, "explicit_paddings": {"list": {}}}}, {"name": "Add_55", "op": "AddV2", "input": ["Conv2D_59", "Add_55/y"], "attr": {"T": {"type": "DT_FLOAT"}}}, {"name": "tfl.conv_2d59", "op": "Relu", "input": ["Add_55"], "attr": {"T": {"type": "DT_FLOAT"}}}, {"name": "Conv2D_60", "op": "Conv2D", "input": ["tfl.conv_2d59", "Conv2D_60/filter"], "device": "/device:CPU:0", "attr": {"use_cudnn_on_gpu": {"b": true}, "T": {"type": "DT_FLOAT"}, "dilations": {"list": {"i": ["1", "1", "1", "1"]}}, "explicit_paddings": {"list": {}}, "padding": {"s": "U0FNRQ=="}, "data_format": {"s": "TkhXQw=="}, "strides": {"list": {"i": ["1", "1", "1", "1"]}}}}, {"name": "Conv2D_61", "op": "Conv2D", "input": ["tfl.conv_2d59", "Conv2D_61/filter"], "device": "/device:CPU:0", "attr": {"dilations": {"list": {"i": ["1", "1", "1", "1"]}}, "padding": {"s": "U0FNRQ=="}, "explicit_paddings": {"list": {}}, "data_format": {"s": "TkhXQw=="}, "strides": {"list": {"i": ["1", "1", "1", "1"]}}, "use_cudnn_on_gpu": {"b": true}, "T": {"type": "DT_FLOAT"}}}, {"name": "Conv2D_62", "op": "Conv2D", "input": ["tfl.conv_2d59", "Conv2D_62/filter"], "device": "/device:CPU:0", "attr": {"T": {"type": "DT_FLOAT"}, "explicit_paddings": {"list": {}}, "padding": {"s": "U0FNRQ=="}, "strides": {"list": {"i": ["1", "1", "1", "1"]}}, "data_format": {"s": "TkhXQw=="}, "dilations": {"list": {"i": ["1", "1", "1", "1"]}}, "use_cudnn_on_gpu": {"b": true}}}, {"name": "tfl.conv_2d60", "op": "AddV2", "input": ["Conv2D_60", "tfl.conv_2d60/y"], "attr": {"T": {"type": "DT_FLOAT"}}}, {"name": "tfl.conv_2d61", "op": "AddV2", "input": ["Conv2D_61", "tfl.conv_2d61/y"], "attr": {"T": {"type": "DT_FLOAT"}}}, {"name": "tfl.conv_2d62", "op": "AddV2", "input": ["Conv2D_62", "tfl.conv_2d62/y"], "attr": {"T": {"type": "DT_FLOAT"}}}, {"name": "feature_fusion/Conv_7/Sigmoid", "op": "Sigmoid", "input": ["tfl.conv_2d60"], "attr": {"T": {"type": "DT_FLOAT"}}}, {"name": "feature_fusion/Conv_8/Sigmoid", "op": "Sigmoid", "input": ["tfl.conv_2d61"], "attr": {"T": {"type": "DT_FLOAT"}}}, {"name": "feature_fusion/Conv_9/Sigmoid", "op": "Sigmoid", "input": ["tfl.conv_2d62"], "attr": {"T": {"type": "DT_FLOAT"}}}, {"name": "feature_fusion/mul_6", "op": "Mul", "input": ["feature_fusion/Conv_8/Sigmoid", "feature_fusion/mul_6/y"], "attr": {"T": {"type": "DT_FLOAT"}}}, {"name": "feature_fusion/sub", "op": "Sub", "input": ["feature_fusion/Conv_9/Sigmoid", "feature_fusion/sub/y"], "attr": {"T": {"type": "DT_FLOAT"}}}, {"name": "feature_fusion/mul_7", "op": "Mul", "input": ["feature_fusion/sub", "feature_fusion/mul_7/y"], "attr": {"T": {"type": "DT_FLOAT"}}}, {"name": "feature_fusion/concat_3", "op": "ConcatV2", "input": ["feature_fusion/mul_6", "feature_fusion/mul_7", "feature_fusion/concat_3/axis"], "attr": {"Tidx": {"type": "DT_INT32"}, "N": {"i": "2"}, "T": {"type": "DT_FLOAT"}}}], "library": {}, "versions": {"producer": 1087}}, "weightsManifest": [{"paths": ["group1-shard1of12.bin", "group1-shard2of12.bin", "group1-shard3of12.bin", "group1-shard4of12.bin", "group1-shard5of12.bin", "group1-shard6of12.bin", "group1-shard7of12.bin", "group1-shard8of12.bin", "group1-shard9of12.bin", "group1-shard10of12.bin", "group1-shard11of12.bin", "group1-shard12of12.bin"], "weights": [{"name": "Conv2D_60/filter", "shape": [1, 1, 32, 1], "dtype": "float32", "quantization": {"dtype": "float16", "original_dtype": "float32"}}, {"name": "tfl.conv_2d60/y", "shape": [1], "dtype": "float32", "quantization": {"dtype": "float16", "original_dtype": "float32"}}, {"name": "Conv2D_61/filter", "shape": [1, 1, 32, 4], "dtype": "float32", "quantization": {"dtype": "float16", "original_dtype": "float32"}}, {"name": "tfl.conv_2d61/y", "shape": [4], "dtype": "float32", "quantization": {"dtype": "float16", "original_dtype": "float32"}}, {"name": "feature_fusion/mul_6/y", "shape": [], "dtype": "float32", "quantization": {"dtype": "float16", "original_dtype": "float32"}}, {"name": "tfl.conv_2d52/y", "shape": [2048], "dtype": "float32", "quantization": {"dtype": "float16", "original_dtype": "float32"}}, {"name": "tfl.conv_2d49/y", "shape": [2048], "dtype": "float32", "quantization": {"dtype": "float16", "original_dtype": "float32"}}, {"name": "ArithmeticOptimizer/AddOpsRewrite_Leaf_0_Add_42", "shape": [2048], "dtype": "float32", "quantization": {"dtype": "float16", "original_dtype": "float32"}}, {"name": "Conv2D_46/filter", "shape": [1, 1, 1024, 2048], "dtype": "float32", "quantization": {"dtype": "float16", "original_dtype": "float32"}}, {"name": "tfl.conv_2d39/y", "shape": [1024], "dtype": "float32", "quantization": {"dtype": "float16", "original_dtype": "float32"}}, {"name": "tfl.conv_2d36/y", "shape": [1024], "dtype": "float32", "quantization": {"dtype": "float16", "original_dtype": "float32"}}, {"name": "tfl.conv_2d33/y", "shape": [1024], "dtype": "float32", "quantization": {"dtype": "float16", "original_dtype": "float32"}}, {"name": "tfl.conv_2d30/y", "shape": [1024], "dtype": "float32", "quantization": {"dtype": "float16", "original_dtype": "float32"}}, {"name": "ArithmeticOptimizer/AddOpsRewrite_Leaf_0_Add_24", "shape": [1024], "dtype": "float32", "quantization": {"dtype": "float16", "original_dtype": "float32"}}, {"name": "Conv2D_27/filter", "shape": [1, 1, 512, 1024], "dtype": "float32", "quantization": {"dtype": "float16", "original_dtype": "float32"}}, {"name": "Conv2D_24/filter", "shape": [1, 1, 512, 256], "dtype": "float32", "quantization": {"dtype": "float16", "original_dtype": "float32"}}, {"name": "Add_22/y", "shape": [256], "dtype": "float32", "quantization": {"dtype": "float16", "original_dtype": "float32"}}, {"name": "Conv2D_25/filter", "shape": [3, 3, 256, 256], "dtype": "float32", "quantization": {"dtype": "float16", "original_dtype": "float32"}}, {"name": "Add_23/y", "shape": [256], "dtype": "float32", "quantization": {"dtype": "float16", "original_dtype": "float32"}}, {"name": "Conv2D_26/filter", "shape": [1, 1, 256, 1024], "dtype": "float32", "quantization": {"dtype": "float16", "original_dtype": "float32"}}, {"name": "Conv2D_28/filter", "shape": [1, 1, 1024, 256], "dtype": "float32", "quantization": {"dtype": "float16", "original_dtype": "float32"}}, {"name": "Add_25/y", "shape": [256], "dtype": "float32", "quantization": {"dtype": "float16", "original_dtype": "float32"}}, {"name": "Conv2D_29/filter", "shape": [3, 3, 256, 256], "dtype": "float32", "quantization": {"dtype": "float16", "original_dtype": "float32"}}, {"name": "Add_26/y", "shape": [256], "dtype": "float32", "quantization": {"dtype": "float16", "original_dtype": "float32"}}, {"name": "Conv2D_30/filter", "shape": [1, 1, 256, 1024], "dtype": "float32", "quantization": {"dtype": "float16", "original_dtype": "float32"}}, {"name": "Conv2D_31/filter", "shape": [1, 1, 1024, 256], "dtype": "float32", "quantization": {"dtype": "float16", "original_dtype": "float32"}}, {"name": "Add_28/y", "shape": [256], "dtype": "float32", "quantization": {"dtype": "float16", "original_dtype": "float32"}}, {"name": "Conv2D_32/filter", "shape": [3, 3, 256, 256], "dtype": "float32", "quantization": {"dtype": "float16", "original_dtype": "float32"}}, {"name": "Add_29/y", "shape": [256], "dtype": "float32", "quantization": {"dtype": "float16", "original_dtype": "float32"}}, {"name": "Conv2D_33/filter", "shape": [1, 1, 256, 1024], "dtype": "float32", "quantization": {"dtype": "float16", "original_dtype": "float32"}}, {"name": "Conv2D_34/filter", "shape": [1, 1, 1024, 256], "dtype": "float32", "quantization": {"dtype": "float16", "original_dtype": "float32"}}, {"name": "Add_31/y", "shape": [256], "dtype": "float32", "quantization": {"dtype": "float16", "original_dtype": "float32"}}, {"name": "Conv2D_35/filter", "shape": [3, 3, 256, 256], "dtype": "float32", "quantization": {"dtype": "float16", "original_dtype": "float32"}}, {"name": "Add_32/y", "shape": [256], "dtype": "float32", "quantization": {"dtype": "float16", "original_dtype": "float32"}}, {"name": "Conv2D_36/filter", "shape": [1, 1, 256, 1024], "dtype": "float32", "quantization": {"dtype": "float16", "original_dtype": "float32"}}, {"name": "Conv2D_37/filter", "shape": [1, 1, 1024, 256], "dtype": "float32", "quantization": {"dtype": "float16", "original_dtype": "float32"}}, {"name": "Add_34/y", "shape": [256], "dtype": "float32", "quantization": {"dtype": "float16", "original_dtype": "float32"}}, {"name": "Conv2D_38/filter", "shape": [3, 3, 256, 256], "dtype": "float32", "quantization": {"dtype": "float16", "original_dtype": "float32"}}, {"name": "Add_35/y", "shape": [256], "dtype": "float32", "quantization": {"dtype": "float16", "original_dtype": "float32"}}, {"name": "Conv2D_39/filter", "shape": [1, 1, 256, 1024], "dtype": "float32", "quantization": {"dtype": "float16", "original_dtype": "float32"}}, {"name": "Conv2D_40/filter", "shape": [1, 1, 1024, 256], "dtype": "float32", "quantization": {"dtype": "float16", "original_dtype": "float32"}}, {"name": "Add_37/y", "shape": [256], "dtype": "float32", "quantization": {"dtype": "float16", "original_dtype": "float32"}}, {"name": "resnet_v1_50/block3/unit_6/bottleneck_v1/Pad/paddings", "shape": [4, 2], "dtype": "int32"}, {"name": "Conv2D_41/filter", "shape": [3, 3, 256, 256], "dtype": "float32", "quantization": {"dtype": "float16", "original_dtype": "float32"}}, {"name": "Add_38/y", "shape": [256], "dtype": "float32", "quantization": {"dtype": "float16", "original_dtype": "float32"}}, {"name": "Conv2D_42/filter", "shape": [1, 1, 256, 1024], "dtype": "float32", "quantization": {"dtype": "float16", "original_dtype": "float32"}}, {"name": "tfl.conv_2d42/y", "shape": [1024], "dtype": "float32", "quantization": {"dtype": "float16", "original_dtype": "float32"}}, {"name": "Conv2D_43/filter", "shape": [1, 1, 1024, 512], "dtype": "float32", "quantization": {"dtype": "float16", "original_dtype": "float32"}}, {"name": "Add_40/y", "shape": [512], "dtype": "float32", "quantization": {"dtype": "float16", "original_dtype": "float32"}}, {"name": "Conv2D_44/filter", "shape": [3, 3, 512, 512], "dtype": "float32", "quantization": {"dtype": "float16", "original_dtype": "float32"}}, {"name": "Add_41/y", "shape": [512], "dtype": "float32", "quantization": {"dtype": "float16", "original_dtype": "float32"}}, {"name": "Conv2D_45/filter", "shape": [1, 1, 512, 2048], "dtype": "float32", "quantization": {"dtype": "float16", "original_dtype": "float32"}}, {"name": "Conv2D_47/filter", "shape": [1, 1, 2048, 512], "dtype": "float32", "quantization": {"dtype": "float16", "original_dtype": "float32"}}, {"name": "Add_43/y", "shape": [512], "dtype": "float32", "quantization": {"dtype": "float16", "original_dtype": "float32"}}, {"name": "Conv2D_48/filter", "shape": [3, 3, 512, 512], "dtype": "float32", "quantization": {"dtype": "float16", "original_dtype": "float32"}}, {"name": "Add_44/y", "shape": [512], "dtype": "float32", "quantization": {"dtype": "float16", "original_dtype": "float32"}}, {"name": "Conv2D_49/filter", "shape": [1, 1, 512, 2048], "dtype": "float32", "quantization": {"dtype": "float16", "original_dtype": "float32"}}, {"name": "Conv2D_50/filter", "shape": [1, 1, 2048, 512], "dtype": "float32", "quantization": {"dtype": "float16", "original_dtype": "float32"}}, {"name": "Add_46/y", "shape": [512], "dtype": "float32", "quantization": {"dtype": "float16", "original_dtype": "float32"}}, {"name": "Conv2D_51/filter", "shape": [3, 3, 512, 512], "dtype": "float32", "quantization": {"dtype": "float16", "original_dtype": "float32"}}, {"name": "Add_47/y", "shape": [512], "dtype": "float32", "quantization": {"dtype": "float16", "original_dtype": "float32"}}, {"name": "Conv2D_52/filter", "shape": [1, 1, 512, 2048], "dtype": "float32", "quantization": {"dtype": "float16", "original_dtype": "float32"}}, {"name": "feature_fusion/ResizeBilinear_lambda/resize/size", "shape": [2], "dtype": "int32"}, {"name": "tfl.conv_2d20/y", "shape": [512], "dtype": "float32", "quantization": {"dtype": "float16", "original_dtype": "float32"}}, {"name": "tfl.conv_2d17/y", "shape": [512], "dtype": "float32", "quantization": {"dtype": "float16", "original_dtype": "float32"}}, {"name": "ArithmeticOptimizer/AddOpsRewrite_Leaf_0_Add_12", "shape": [512], "dtype": "float32", "quantization": {"dtype": "float16", "original_dtype": "float32"}}, {"name": "Conv2D_14/filter", "shape": [1, 1, 256, 512], "dtype": "float32", "quantization": {"dtype": "float16", "original_dtype": "float32"}}, {"name": "Conv2D_11/filter", "shape": [1, 1, 256, 128], "dtype": "float32", "quantization": {"dtype": "float16", "original_dtype": "float32"}}, {"name": "Add_10/y", "shape": [128], "dtype": "float32", "quantization": {"dtype": "float16", "original_dtype": "float32"}}, {"name": "Conv2D_12/filter", "shape": [3, 3, 128, 128], "dtype": "float32", "quantization": {"dtype": "float16", "original_dtype": "float32"}}, {"name": "Add_11/y", "shape": [128], "dtype": "float32", "quantization": {"dtype": "float16", "original_dtype": "float32"}}, {"name": "Conv2D_13/filter", "shape": [1, 1, 128, 512], "dtype": "float32", "quantization": {"dtype": "float16", "original_dtype": "float32"}}, {"name": "Conv2D_15/filter", "shape": [1, 1, 512, 128], "dtype": "float32", "quantization": {"dtype": "float16", "original_dtype": "float32"}}, {"name": "Add_13/y", "shape": [128], "dtype": "float32", "quantization": {"dtype": "float16", "original_dtype": "float32"}}, {"name": "Conv2D_16/filter", "shape": [3, 3, 128, 128], "dtype": "float32", "quantization": {"dtype": "float16", "original_dtype": "float32"}}, {"name": "Add_14/y", "shape": [128], "dtype": "float32", "quantization": {"dtype": "float16", "original_dtype": "float32"}}, {"name": "Conv2D_17/filter", "shape": [1, 1, 128, 512], "dtype": "float32", "quantization": {"dtype": "float16", "original_dtype": "float32"}}, {"name": "Conv2D_18/filter", "shape": [1, 1, 512, 128], "dtype": "float32", "quantization": {"dtype": "float16", "original_dtype": "float32"}}, {"name": "Add_16/y", "shape": [128], "dtype": "float32", "quantization": {"dtype": "float16", "original_dtype": "float32"}}, {"name": "Conv2D_19/filter", "shape": [3, 3, 128, 128], "dtype": "float32", "quantization": {"dtype": "float16", "original_dtype": "float32"}}, {"name": "Add_17/y", "shape": [128], "dtype": "float32", "quantization": {"dtype": "float16", "original_dtype": "float32"}}, {"name": "Conv2D_20/filter", "shape": [1, 1, 128, 512], "dtype": "float32", "quantization": {"dtype": "float16", "original_dtype": "float32"}}, {"name": "Conv2D_21/filter", "shape": [1, 1, 512, 128], "dtype": "float32", "quantization": {"dtype": "float16", "original_dtype": "float32"}}, {"name": "Add_19/y", "shape": [128], "dtype": "float32", "quantization": {"dtype": "float16", "original_dtype": "float32"}}, {"name": "resnet_v1_50/block2/unit_4/bottleneck_v1/Pad/paddings", "shape": [4, 2], "dtype": "int32"}, {"name": "Conv2D_22/filter", "shape": [3, 3, 128, 128], "dtype": "float32", "quantization": {"dtype": "float16", "original_dtype": "float32"}}, {"name": "Add_20/y", "shape": [128], "dtype": "float32", "quantization": {"dtype": "float16", "original_dtype": "float32"}}, {"name": "Conv2D_23/filter", "shape": [1, 1, 128, 512], "dtype": "float32", "quantization": {"dtype": "float16", "original_dtype": "float32"}}, {"name": "tfl.conv_2d23/y", "shape": [512], "dtype": "float32", "quantization": {"dtype": "float16", "original_dtype": "float32"}}, {"name": "feature_fusion/concat/axis", "shape": [], "dtype": "int32"}, {"name": "Conv2D_53/filter", "shape": [1, 1, 2560, 128], "dtype": "float32", "quantization": {"dtype": "float16", "original_dtype": "float32"}}, {"name": "Add_49/y", "shape": [128], "dtype": "float32", "quantization": {"dtype": "float16", "original_dtype": "float32"}}, {"name": "Conv2D_54/filter", "shape": [3, 3, 128, 128], "dtype": "float32", "quantization": {"dtype": "float16", "original_dtype": "float32"}}, {"name": "Add_50/y", "shape": [128], "dtype": "float32", "quantization": {"dtype": "float16", "original_dtype": "float32"}}, {"name": "feature_fusion/ResizeBilinear_1_lambda/resize/size", "shape": [2], "dtype": "int32"}, {"name": "tfl.conv_2d7/y", "shape": [256], "dtype": "float32", "quantization": {"dtype": "float16", "original_dtype": "float32"}}, {"name": "ArithmeticOptimizer/AddOpsRewrite_Leaf_0_Add_3", "shape": [256], "dtype": "float32", "quantization": {"dtype": "float16", "original_dtype": "float32"}}, {"name": "Conv2D_4/filter", "shape": [1, 1, 64, 256], "dtype": "float32", "quantization": {"dtype": "float16", "original_dtype": "float32"}}, {"name": "Conv2D_1/filter", "shape": [1, 1, 64, 64], "dtype": "float32", "quantization": {"dtype": "float16", "original_dtype": "float32"}}, {"name": "Add_1/y", "shape": [64], "dtype": "float32", "quantization": {"dtype": "float16", "original_dtype": "float32"}}, {"name": "Conv2D_2/filter", "shape": [3, 3, 64, 64], "dtype": "float32", "quantization": {"dtype": "float16", "original_dtype": "float32"}}, {"name": "Add_2/y", "shape": [64], "dtype": "float32", "quantization": {"dtype": "float16", "original_dtype": "float32"}}, {"name": "Conv2D_3/filter", "shape": [1, 1, 64, 256], "dtype": "float32", "quantization": {"dtype": "float16", "original_dtype": "float32"}}, {"name": "Conv2D_5/filter", "shape": [1, 1, 256, 64], "dtype": "float32", "quantization": {"dtype": "float16", "original_dtype": "float32"}}, {"name": "Add_4/y", "shape": [64], "dtype": "float32", "quantization": {"dtype": "float16", "original_dtype": "float32"}}, {"name": "Conv2D_6/filter", "shape": [3, 3, 64, 64], "dtype": "float32", "quantization": {"dtype": "float16", "original_dtype": "float32"}}, {"name": "Add_5/y", "shape": [64], "dtype": "float32", "quantization": {"dtype": "float16", "original_dtype": "float32"}}, {"name": "Conv2D_7/filter", "shape": [1, 1, 64, 256], "dtype": "float32", "quantization": {"dtype": "float16", "original_dtype": "float32"}}, {"name": "Conv2D_8/filter", "shape": [1, 1, 256, 64], "dtype": "float32", "quantization": {"dtype": "float16", "original_dtype": "float32"}}, {"name": "Add_7/y", "shape": [64], "dtype": "float32", "quantization": {"dtype": "float16", "original_dtype": "float32"}}, {"name": "resnet_v1_50/block1/unit_3/bottleneck_v1/Pad/paddings", "shape": [4, 2], "dtype": "int32"}, {"name": "Conv2D_9/filter", "shape": [3, 3, 64, 64], "dtype": "float32", "quantization": {"dtype": "float16", "original_dtype": "float32"}}, {"name": "Add_8/y", "shape": [64], "dtype": "float32", "quantization": {"dtype": "float16", "original_dtype": "float32"}}, {"name": "Conv2D_10/filter", "shape": [1, 1, 64, 256], "dtype": "float32", "quantization": {"dtype": "float16", "original_dtype": "float32"}}, {"name": "tfl.conv_2d10/y", "shape": [256], "dtype": "float32", "quantization": {"dtype": "float16", "original_dtype": "float32"}}, {"name": "feature_fusion/concat_1/axis", "shape": [], "dtype": "int32"}, {"name": "Conv2D_55/filter", "shape": [1, 1, 384, 64], "dtype": "float32", "quantization": {"dtype": "float16", "original_dtype": "float32"}}, {"name": "Add_51/y", "shape": [64], "dtype": "float32", "quantization": {"dtype": "float16", "original_dtype": "float32"}}, {"name": "Conv2D_56/filter", "shape": [3, 3, 64, 64], "dtype": "float32", "quantization": {"dtype": "float16", "original_dtype": "float32"}}, {"name": "Add_52/y", "shape": [64], "dtype": "float32", "quantization": {"dtype": "float16", "original_dtype": "float32"}}, {"name": "feature_fusion/ResizeBilinear_2_lambda/resize/size", "shape": [2], "dtype": "int32"}, {"name": "resnet_v1_50/Pad/paddings", "shape": [4, 2], "dtype": "int32"}, {"name": "Conv2D/filter", "shape": [7, 7, 3, 64], "dtype": "float32", "quantization": {"dtype": "float16", "original_dtype": "float32"}}, {"name": "Add/y", "shape": [64], "dtype": "float32", "quantization": {"dtype": "float16", "original_dtype": "float32"}}, {"name": "feature_fusion/concat_2/axis", "shape": [], "dtype": "int32"}, {"name": "Conv2D_57/filter", "shape": [1, 1, 128, 32], "dtype": "float32", "quantization": {"dtype": "float16", "original_dtype": "float32"}}, {"name": "Add_53/y", "shape": [32], "dtype": "float32", "quantization": {"dtype": "float16", "original_dtype": "float32"}}, {"name": "Conv2D_58/filter", "shape": [3, 3, 32, 32], "dtype": "float32", "quantization": {"dtype": "float16", "original_dtype": "float32"}}, {"name": "Add_54/y", "shape": [32], "dtype": "float32", "quantization": {"dtype": "float16", "original_dtype": "float32"}}, {"name": "Conv2D_59/filter", "shape": [3, 3, 32, 32], "dtype": "float32", "quantization": {"dtype": "float16", "original_dtype": "float32"}}, {"name": "Add_55/y", "shape": [32], "dtype": "float32", "quantization": {"dtype": "float16", "original_dtype": "float32"}}, {"name": "Conv2D_62/filter", "shape": [1, 1, 32, 1], "dtype": "float32", "quantization": {"dtype": "float16", "original_dtype": "float32"}}, {"name": "tfl.conv_2d62/y", "shape": [1], "dtype": "float32", "quantization": {"dtype": "float16", "original_dtype": "float32"}}, {"name": "feature_fusion/sub/y", "shape": [], "dtype": "float32", "quantization": {"dtype": "float16", "original_dtype": "float32"}}, {"name": "feature_fusion/mul_7/y", "shape": [], "dtype": "float32", "quantization": {"dtype": "float16", "original_dtype": "float32"}}, {"name": "feature_fusion/concat_3/axis", "shape": [], "dtype": "int32"}]}]}